bnn_trained.pth (torch, 44350 bytes, 40 tensors)

fc1.weight_mu f4 [64, 3]
000000 0d 63 15 be 9c 6c e3 3d c5 d4 a2 3e 40 e5 57 bd
       -0.14588566 0.111047 0.31802955 -0.052708864
000010 7e 9b b1 be 9c e3 68 3e b7 6e b2 3d e5 77 06 3e
       -0.34688944 0.22743076 0.087125234 0.13131674
000020 5d 05 9e 3d 08 b7 0c 3e 1d 49 47 3e c8 d8 bd bc
       0.07715867 0.13741696 0.19461484 -0.023174658
000030 e4 67 58 bc 75 7e 8d bd 2a 26 60 be 46 aa d9 be
       -0.013208363 -0.069088854 -0.21889558 -0.4251272
000040 4c 6f 7d 3d 9a 43 c1 3d 90 6f c2 ba d2 b6 91 3c
       0.06187372 0.09436722 -0.0014834274 0.01778737
000050 dc f1 b4 be 75 8e 6c 3e b3 ed f3 3d d0 d1 70 3d
       -0.35340774 0.23101218 0.11910572 0.058793843
000060 f5 26 20 3e a7 cf 50 3e 4d 9e c2 3d 6c 3f 25 3e
       0.15639861 0.20391713 0.0950285 0.16137475
000070 eb b5 a8 3d bb 45 e1 3c f9 41 f7 3b 09 c4 51 3e
       0.08237823 0.02749907 0.0075457064 0.20484938
000080 28 42 81 3e 52 70 c7 3e d7 18 a0 bc df ed 18 be
       0.25245786 0.3895288 -0.019543095 -0.1493449
000090 ee 19 ba 3d 9a be c4 3d 5a b5 af 3c 6a 52 35 3e
       0.09086977 0.09606667 0.02144878 0.1770722
0000a0 57 db 0f 3e 24 3b 34 3d a6 dc 40 be 4d 43 2a 3e
       0.14048515 0.044001713 -0.1883417 0.16627236
0000b0 a4 45 48 be fa f1 35 3e d8 22 15 3e 3e 92 e7 3c
       -0.19557816 0.17768088 0.14564073 0.028267976
0000c0 b8 42 e0 bd 59 47 d7 bd 83 c7 7e be 95 ea 3f 3d
       -0.109502256 -0.10511655 -0.24880795 0.046854574
0000d0 22 8a 54 3e d2 85 28 3e 31 30 22 3e 66 fb 0b 3d
       0.20755818 0.16457298 0.15838696 0.0341753
0000e0 48 79 64 3a f7 a3 8e 3d 5b 4a 55 3e 0b 23 84 3d
       0.0008715582 0.069648676 0.20829146 0.064519964
0000f0 4d ac 6b 3e f2 f4 71 3e e2 8a 98 3d 9f b6 2d 3e
       0.23014946 0.23628595 0.07448365 0.16964196
000100 89 8c 9d 3d 80 53 28 3d bf 32 13 3e f4 44 3a 3d
       0.076928206 0.041095257 0.14374827 0.045475915
000110 32 f4 13 3e 54 8f b8 3c e6 32 56 3e ec 0a 69 bd
       0.14448622 0.022529282 0.20917854 -0.05689518
000120 88 46 c2 3c d4 09 5c 3e a0 d6 db 3d d3 35 ce 3e
       0.023715273 0.21488124 0.10734296 0.4027544
000130 79 1a 56 be fc 01 1f be 34 1b bc 3e 2d bb a0 bd
       -0.20908536 -0.155281 0.36739504 -0.07848201
000140 f3 b1 04 be 7d 6e e6 3d e1 64 63 3e ff 82 77 3e
       -0.12958507 0.11251543 0.22206451 0.24171065
000150 84 b9 0a 3e 90 86 24 3e be 03 15 3d 6c 86 00 38
       0.13547331 0.16066957 0.036380522 3.064277e-05
000160 28 0e a4 be 41 75 01 be ca fe a3 3c 45 ee 66 3d
       -0.3204205 -0.12642385 0.020018954 0.056379575
000170 d1 28 5c 3e 96 de 41 3e 6d ef 54 3d c3 99 e2 bb
       0.21499945 0.18932566 0.051986147 -0.0069153025
000180 37 0d 26 be 14 04 f5 3d de 0a d7 3e e3 9b 0e 3e
       -0.16215979 0.119636685 0.42000479 0.13926654
000190 b4 b4 16 3e c7 fc fe 3c 04 df 19 3e 4f e0 22 3e
       0.1471737 0.031126393 0.1502648 0.1590588
0001a0 e4 25 26 3d 59 e3 ac 3e 41 4c d8 bd fa e3 30 be
       0.04056348 0.33767202 -0.10561419 -0.17274466
0001b0 93 69 92 3e 82 44 ea 3d 99 90 e1 3d bd 3f 8a bb
       0.28596172 0.11438848 0.11013908 -0.004219024
0001c0 e2 7f 51 3e ca 4b 73 3e 46 8f 6d bd 96 f2 3e be
       0.2045894 0.2375938 -0.057997964 -0.18647227
0001d0 9c 08 ba be 79 3b 99 be 8f 24 a0 3d 0d c6 c3 3d
       -0.36334693 -0.29928187 0.07819473 0.095592596
0001e0 92 27 96 3e 9e 65 8c be 52 aa 24 bc 42 48 e6 bd
       0.29327065 -0.27421278 -0.010050373 -0.11244251
0001f0 aa 36 88 be 3a 6b 70 bd 3a 9c 95 be 28 33 0f 3d
       -0.26604205 -0.05869601 -0.29220754 0.034960896
000200 53 4b b6 3d 1d c2 1a bd 4a fc ab 3d 90 bd 60 3e
       0.08901086 -0.037782777 0.0839773 0.21947312
000210 1b 5d 62 bb d0 28 d6 3c a7 24 45 3c fc ff c0 be
       -0.0034540358 0.026142508 0.012032664 -0.376953
000220 76 66 81 3a 55 70 16 3e 4b 3a 34 3e 32 fb 2d 3d
       0.0009872455 0.14691289 0.17600362 0.042475887
000230 c0 92 1e 3e ad 2a 20 3d f3 02 9d be 4f cd 02 3e
       0.15485668 0.0391032 -0.30666313 0.12773632
000240 70 89 40 3e e8 cd f5 3d 24 97 d2 3c 3b 7a b7 be
       0.18802428 0.12002164 0.025706835 -0.35835442
000250 ff 07 83 3d 52 c5 1e 3c 94 c8 f9 bd 09 1a 81 bb
       0.063980095 0.0096905995 -0.1219646 -0.003939871
000260 7f 60 9c be b6 b3 7a 3d 1b 12 a0 be c4 ab 26 3e
       -0.3054237 0.061206542 -0.31263813 0.16276461
000270 ed bb ef 3d ae f8 ba 3d 75 86 be 3d 40 d1 a1 3d
       0.11705766 0.09129463 0.093029894 0.079012394
000280 c8 4d 53 bc 64 20 3c 3d a2 ed 52 be b9 81 ad be
       -0.012896962 0.045929328 -0.20598462 -0.33888033
000290 67 25 87 3e 9c c9 f9 be 8f 8e 08 3e ad 70 c2 3d
       0.26395723 -0.48786628 0.13335632 0.094941474
0002a0 33 83 35 be 40 c0 19 3e ee 14 42 be f0 0c 4c 3e
       -0.1772583 0.15014744 -0.18953297 0.1992681
0002b0 48 2a 2d 3e a5 93 6f 3d dc 52 1a 3d 10 21 cc be
       0.1691066 0.058490414 0.037676677 -0.39868975
0002c0 3a 29 2d 3e a0 88 21 3d a9 0a 8f 3e 50 50 96 3d
       0.16910258 0.039436936 0.2793782 0.07339537
0002d0 77 86 1a be b5 12 e1 3d 38 47 0e be 47 a9 c8 be
       -0.15090357 0.10989896 -0.13894355 -0.39191648
0002e0 76 7c a2 3c d1 aa 93 3d a9 d4 33 3e c2 3c 1b 3e
       0.019834738 0.07210315 0.17561592 0.15159896
0002f0 f1 8b f9 3c 5a 91 04 3e 2d 6a 62 3d e6 07 c0 3d
       0.030462237 0.12946072 0.05527704 0.093765065

fc1.weight_rho f4 [64, 3]
000000 51 72 db c0 71 1c e1 c0 a2 8b de c0 de 88 e4 c0
       -6.8577046 -7.034722 -6.954545 -7.1417074
000010 5d 4e da c0 ca 19 e3 c0 44 ea e0 c0 c9 7a dd c0
       -6.822066 -7.096898 -7.028597 -6.9212384
000020 4a 4b de c0 ee 6b e0 c0 6b 44 e4 c0 ce fb e0 c0
       -6.9466906 -7.013175 -7.133352 -7.030738
000030 b3 35 dd c0 63 ae e1 c0 ea 97 dc c0 cf 4c e4 c0
       -6.912805 -7.0525374 -6.893544 -7.134376
000040 8f 77 e4 c0 b9 37 e3 c0 db d8 e2 c0 9c 11 df c0
       -7.1395946 -7.100552 -7.0889716 -6.9708996
000050 8d 6c dd c0 5d 9d de c0 33 6b e0 c0 d4 c2 e6 c0
       -6.919501 -6.9567094 -7.013086 -7.2112827
000060 d4 c7 e1 c0 ea ee df c0 54 f3 e5 c0 4f d0 d7 c0
       -7.055643 -6.9979143 -7.185953 -6.7441783
000070 f5 63 de c0 7f 6a df c0 f0 5a df c0 24 72 e4 c0
       -6.949702 -6.98175 -6.979851 -7.138933
000080 07 d9 e1 c0 58 35 e2 c0 f3 d8 df c0 53 c6 e5 c0
       -7.0577426 -7.0690117 -6.995233 -7.1804595
000090 95 b0 e1 c0 b7 a6 e1 c0 5a 4d d9 c0 05 33 da c0
       -7.0528054 -7.051601 -6.7906923 -6.818728
0000a0 42 d8 e3 c0 40 50 de c0 1d 3b e2 c0 f5 49 de c0
       -7.1201487 -6.947296 -7.069716 -6.946528
0000b0 70 1f e2 c0 10 cd e3 c0 34 f8 e1 c0 4d 91 df c0
       -7.0663376 -7.118782 -7.061548 -6.986487
0000c0 13 d7 df c0 15 3e e0 c0 a0 bb e3 c0 75 b6 e3 c0
       -6.995004 -7.0075784 -7.1166534 -7.1160226
0000d0 e0 84 e4 c0 f6 57 dd c0 a5 6f e3 c0 e3 67 da c0
       -7.14122 -6.9169874 -7.1073785 -6.8251815
0000e0 b3 59 de c0 42 cf e2 c0 8c 91 de c0 fd f1 df c0
       -6.9484496 -7.0878 -6.955267 -6.9982896
0000f0 48 dd e0 c0 96 83 e2 c0 8b 26 e0 c0 e9 7c e2 c0
       -7.027012 -7.0785627 -7.004705 -7.077748
000100 02 8b e0 c0 6b 67 dd c0 b8 da db c0 bf ef dd c0
       -7.0169687 -6.9188743 -6.870449 -6.935516
000110 72 ac e1 c0 5d 33 de c0 59 e2 e5 c0 6f 4a db c0
       -7.0523005 -6.94377 -7.1838803 -6.852836
000120 5d 8f e2 c0 ff 23 e1 c0 f0 57 e3 c0 14 15 e0 c0
       -7.0800004 -7.035644 -7.1044846 -7.002573
000130 b9 a0 e5 c0 3c 1b e3 c0 de 72 e0 c0 e2 bc dd c0
       -7.1758695 -7.0970745 -7.014022 -6.929307
000140 0f 2c df c0 30 e8 e0 c0 cd 65 e0 c0 62 0c db c0
       -6.9741282 -7.028343 -7.012427 -6.8452616
000150 9b 70 e1 c0 23 83 dc c0 05 9a dd c0 d6 50 e3 c0
       -7.044996 -6.891008 -6.925051 -7.1036177
000160 88 a8 e2 c0 48 bd df c0 b0 b5 d6 c0 23 16 e1 c0
       -7.0830727 -6.9918556 -6.7096786 -7.033952
000170 6b 0a e1 c0 e1 93 dc c0 bd 33 de c0 a6 8c e3 c0
       -7.0325217 -6.8930516 -6.9438157 -7.110919
000180 95 48 e1 c0 24 44 e1 c0 34 c4 e1 c0 2a db e2 c0
       -7.04011 -7.039568 -7.0552006 -7.0892534
000190 13 cf e6 c0 b0 c7 e2 c0 f7 43 e3 c0 06 35 e3 c0
       -7.2127776 -7.086876 -7.1020465 -7.1002226
0001a0 dd 80 df c0 d5 67 e0 c0 8f 39 db c0 42 0e dd c0
       -6.9844804 -7.012675 -6.850776 -6.9079905
0001b0 bd 7e e0 c0 33 ad e0 c0 1a ff de c0 07 20 df c0
       -7.015471 -7.0211425 -6.9686403 -6.9726596
0001c0 c9 f7 df c0 0e bb e3 c0 9b bc df c0 08 2f e0 c0
       -6.998997 -7.116584 -6.991773 -7.005741
0001d0 93 31 e6 c0 a4 9f df c0 67 c8 e1 c0 70 11 de c0
       -7.1935515 -6.9882374 -7.055713 -6.9396286
0001e0 44 ab dd c0 00 91 e1 c0 45 44 de c0 42 ec df c0
       -6.9271564 -7.04895 -6.9458337 -6.99759
0001f0 bf 9e e5 c0 b9 75 df c0 1b 1a de c0 ce 03 e4 c0
       -7.175628 -6.9831204 -6.9406867 -7.1254644
000200 25 dc e3 c0 ec 13 e0 c0 e3 fc e0 c0 a5 96 e5 c0
       -7.120623 -7.002432 -7.03087 -7.174639
000210 db f9 e2 c0 36 fe e0 c0 ae 47 da c0 90 aa e1 c0
       -7.093 -7.0310316 -6.82125 -7.0520706
000220 eb 1e df c0 37 4f de c0 13 1e e3 c0 68 17 e6 c0
       -6.972524 -6.94717 -7.097421 -7.190357
000230 ce 0d da c0 c2 33 de c0 89 2b df c0 54 49 e2 c0
       -6.814185 -6.943818 -6.9740644 -7.071451
000240 f6 66 d9 c0 57 80 e5 c0 0a e7 de c0 43 1d e0 c0
       -6.7938185 -7.1719165 -6.965703 -7.003572
000250 8a e9 e3 c0 af 3b e1 c0 26 b8 e2 c0 dd 49 e0 c0
       -7.122258 -7.0385356 -7.084979 -7.0090165
000260 58 b5 de c0 61 a3 e2 c0 5b 9a da c0 d5 3b e1 c0
       -6.9596367 -7.0824437 -6.831342 -7.0385537
000270 5f 16 e0 c0 32 02 e2 c0 d3 1e e5 c0 58 38 e4 c0
       -7.002731 -7.062768 -7.1600127 -7.131878
000280 84 2c da c0 1f b8 e5 c0 b3 8f de c0 c4 71 d9 c0
       -6.817934 -7.1787257 -6.9550414 -6.7951374
000290 0c 78 df c0 d4 06 e2 c0 4a 7f df c0 b7 4b da c0
       -6.983404 -7.0633335 -6.984288 -6.8217425
0002a0 e0 89 da c0 62 01 da c0 48 34 e1 c0 8b dd e1 c0
       -6.8293304 -6.812669 -7.037632 -7.058294
0002b0 32 dc dc c0 c0 56 e6 c0 61 6d e7 c0 d8 3b de c0
       -6.9018793 -7.1980896 -7.232102 -6.944805
0002c0 e2 32 e3 c0 57 90 e4 c0 c1 72 e3 c0 f9 08 e4 c0
       -7.0999613 -7.1426196 -7.107758 -7.1260953
0002d0 b8 66 e1 c0 4d 51 e2 c0 5b f9 d9 c0 19 0a df c0
       -7.043789 -7.0724244 -6.811689 -6.9699826
0002e0 13 63 df c0 53 01 e1 c0 0f 61 e0 c0 0e f3 e0 c0
       -6.980844 -7.0314116 -7.011848 -7.02967
0002f0 da 7b e3 c0 09 52 e4 c0 ff 4b d8 c0 af 14 e2 c0
       -7.1088686 -7.135014 -6.759277 -7.065025

fc1.bias_mu f4 [64]
000000 28 b6 01 be 05 e5 92 3c 7d e6 d4 bc 5b d9 24 bb
       -0.12667143 0.01793147 -0.025988812 -0.0025153968
000010 77 6a 25 3d 6f 8a d5 3d 73 14 34 be 6c 53 05 be
       0.040384736 0.10426795 -0.17585926 -0.13020104
000020 ac 45 57 bd c0 df 5a bd ba 51 0b be f2 bb 5a be
       -0.05255668 -0.05343604 -0.13605395 -0.21360758
000030 17 00 a3 3e 58 3b a7 bd 96 89 60 3d 51 51 61 bd
       0.31836006 -0.08165616 0.054818712 -0.05500919
000040 26 2f 8c 3d 72 ab e5 3d 0c d3 40 3d c6 cb 20 3e
       0.0684493 0.11214341 0.04707627 0.15702733
000050 37 0e db bd 0e 6a 07 bd d9 a1 0f be 3f 53 05 3e
       -0.10696071 -0.033060126 -0.14026584 0.13020037
000060 6e 92 29 3e e0 b0 fa 3d 04 4b 0d be 11 ea 32 3d
       0.16559765 0.122407675 -0.13798147 0.043680254
000070 b6 96 0a bd af d0 9a 3d e8 56 85 3d 46 0c 21 3b
       -0.033835135 0.075593345 0.06510717 0.0024573966
000080 ed 3f 61 bd bc f2 4d bd 47 1d 91 bd e9 ac 3f 3d
       -0.054992605 -0.050280318 -0.07085662 0.04679576
000090 7d 8c 21 bd d2 ee a6 3d 04 a2 61 3d e0 2b d9 bc
       -0.03944062 0.0815102 0.05508615 -0.026510179
0000a0 75 26 5f 3c b7 ee 28 3e 42 b1 93 3d 03 2f 13 be
       0.013620009 0.16497312 0.072115436 -0.14373402
0000b0 83 9a 05 be f7 ec c6 3d 4d b3 a9 bd 8b b6 40 bc
       -0.13047223 0.09713166 -0.08286152 -0.011762272
0000c0 f8 ee 3f 3a 59 57 28 3e 32 a1 a6 bc 41 6c 04 be
       0.0007321681 0.1643957 -0.020340536 -0.1293192
0000d0 a5 f6 30 3c d0 64 c4 3e 63 25 03 3e 34 78 fa 3c
       0.010800992 0.38358164 0.1280723 0.030574895
0000e0 46 4d ea 3d 53 ef ad bd a5 eb 0e be a6 2d cf 3d
       0.1144052 -0.08492913 -0.13957079 0.101161286
0000f0 5c 08 bd 3d c3 21 31 3e 01 96 1a bd 91 7f 32 3c
       0.0923011 0.17298035 -0.03774071 0.010894672

fc1.bias_rho f4 [64]
000000 17 99 e1 c0 48 1a df c0 16 bb dc c0 80 f1 da c0
       -7.0499377 -6.971958 -6.8978376 -6.84198
000010 b4 d7 df c0 5f f3 df c0 26 56 e3 c0 8c 95 dc c0
       -6.995081 -6.9984584 -7.104266 -6.893255
000020 0f c0 dc c0 da fd e6 c0 26 a6 de c0 cc 38 d9 c0
       -6.8984447 -7.2184877 -6.957782 -6.788183
000030 39 97 df c0 a8 f0 df c0 0d 28 e4 c0 48 31 df c0
       -6.98721 -6.998127 -7.129889 -6.974766
000040 c1 8e dd c0 d4 d3 de c0 63 eb da c0 37 ad e6 c0
       -6.923676 -6.963358 -6.8412337 -7.2086444
000050 9c da e3 c0 0a ae de c0 2d d5 e0 c0 8a 99 df c0
       -7.1204357 -6.958745 -7.0260224 -6.9874926
000060 75 fe e1 c0 84 f0 e1 c0 ba ff e4 c0 6e 0b da c0
       -7.0623116 -7.06061 -7.1562166 -6.813895
000070 ac 40 e2 c0 76 62 e5 c0 a9 58 da c0 46 90 de c0
       -7.0703945 -7.168269 -6.823323 -6.9551115
000080 c9 19 dd c0 f4 80 e0 c0 7f 5c df c0 a7 b8 e3 c0
       -6.9093976 -7.0157413 -6.980041 -7.1162906
000090 7d 82 e0 c0 bd 10 dc c0 c7 90 df c0 a1 4e df c0
       -7.0159287 -6.8770432 -6.986423 -6.9783483
0000a0 9f 97 e0 c0 e3 2f dd c0 f3 45 de c0 e8 f6 dd c0
       -7.0185084 -6.9120955 -6.9460387 -6.93639
0000b0 f5 19 df c0 f4 4e db c0 e7 00 dd c0 aa 3c e0 c0
       -6.9719186 -6.853388 -6.90636 -7.0074053
0000c0 54 48 dd c0 de e3 e2 c0 e5 fa e1 c0 f2 63 db c0
       -6.915079 -7.090316 -7.061877 -6.8559504
0000d0 0a 6b e0 c0 15 c2 df c0 ee 10 e2 c0 48 bc de c0
       -7.0130663 -6.9924417 -7.0645666 -6.9604836
0000e0 95 01 e0 c0 6b 8a de c0 c0 77 da c0 ab 47 df c0
       -7.000193 -6.9543967 -6.827118 -6.9774985
0000f0 fc d3 de c0 f5 94 e0 c0 1f 76 de c0 f0 7b dd c0
       -6.963377 -7.018183 -6.951919 -6.921379

fc1.weight_sampler.mu f4 [64, 3]
000000 0d 63 15 be 9c 6c e3 3d c5 d4 a2 3e 40 e5 57 bd
       -0.14588566 0.111047 0.31802955 -0.052708864
000010 7e 9b b1 be 9c e3 68 3e b7 6e b2 3d e5 77 06 3e
       -0.34688944 0.22743076 0.087125234 0.13131674
000020 5d 05 9e 3d 08 b7 0c 3e 1d 49 47 3e c8 d8 bd bc
       0.07715867 0.13741696 0.19461484 -0.023174658
000030 e4 67 58 bc 75 7e 8d bd 2a 26 60 be 46 aa d9 be
       -0.013208363 -0.069088854 -0.21889558 -0.4251272
000040 4c 6f 7d 3d 9a 43 c1 3d 90 6f c2 ba d2 b6 91 3c
       0.06187372 0.09436722 -0.0014834274 0.01778737
000050 dc f1 b4 be 75 8e 6c 3e b3 ed f3 3d d0 d1 70 3d
       -0.35340774 0.23101218 0.11910572 0.058793843
000060 f5 26 20 3e a7 cf 50 3e 4d 9e c2 3d 6c 3f 25 3e
       0.15639861 0.20391713 0.0950285 0.16137475
000070 eb b5 a8 3d bb 45 e1 3c f9 41 f7 3b 09 c4 51 3e
       0.08237823 0.02749907 0.0075457064 0.20484938
000080 28 42 81 3e 52 70 c7 3e d7 18 a0 bc df ed 18 be
       0.25245786 0.3895288 -0.019543095 -0.1493449
000090 ee 19 ba 3d 9a be c4 3d 5a b5 af 3c 6a 52 35 3e
       0.09086977 0.09606667 0.02144878 0.1770722
0000a0 57 db 0f 3e 24 3b 34 3d a6 dc 40 be 4d 43 2a 3e
       0.14048515 0.044001713 -0.1883417 0.16627236
0000b0 a4 45 48 be fa f1 35 3e d8 22 15 3e 3e 92 e7 3c
       -0.19557816 0.17768088 0.14564073 0.028267976
0000c0 b8 42 e0 bd 59 47 d7 bd 83 c7 7e be 95 ea 3f 3d
       -0.109502256 -0.10511655 -0.24880795 0.046854574
0000d0 22 8a 54 3e d2 85 28 3e 31 30 22 3e 66 fb 0b 3d
       0.20755818 0.16457298 0.15838696 0.0341753
0000e0 48 79 64 3a f7 a3 8e 3d 5b 4a 55 3e 0b 23 84 3d
       0.0008715582 0.069648676 0.20829146 0.064519964
0000f0 4d ac 6b 3e f2 f4 71 3e e2 8a 98 3d 9f b6 2d 3e
       0.23014946 0.23628595 0.07448365 0.16964196
000100 89 8c 9d 3d 80 53 28 3d bf 32 13 3e f4 44 3a 3d
       0.076928206 0.041095257 0.14374827 0.045475915
000110 32 f4 13 3e 54 8f b8 3c e6 32 56 3e ec 0a 69 bd
       0.14448622 0.022529282 0.20917854 -0.05689518
000120 88 46 c2 3c d4 09 5c 3e a0 d6 db 3d d3 35 ce 3e
       0.023715273 0.21488124 0.10734296 0.4027544
000130 79 1a 56 be fc 01 1f be 34 1b bc 3e 2d bb a0 bd
       -0.20908536 -0.155281 0.36739504 -0.07848201
000140 f3 b1 04 be 7d 6e e6 3d e1 64 63 3e ff 82 77 3e
       -0.12958507 0.11251543 0.22206451 0.24171065
000150 84 b9 0a 3e 90 86 24 3e be 03 15 3d 6c 86 00 38
       0.13547331 0.16066957 0.036380522 3.064277e-05
000160 28 0e a4 be 41 75 01 be ca fe a3 3c 45 ee 66 3d
       -0.3204205 -0.12642385 0.020018954 0.056379575
000170 d1 28 5c 3e 96 de 41 3e 6d ef 54 3d c3 99 e2 bb
       0.21499945 0.18932566 0.051986147 -0.0069153025
000180 37 0d 26 be 14 04 f5 3d de 0a d7 3e e3 9b 0e 3e
       -0.16215979 0.119636685 0.42000479 0.13926654
000190 b4 b4 16 3e c7 fc fe 3c 04 df 19 3e 4f e0 22 3e
       0.1471737 0.031126393 0.1502648 0.1590588
0001a0 e4 25 26 3d 59 e3 ac 3e 41 4c d8 bd fa e3 30 be
       0.04056348 0.33767202 -0.10561419 -0.17274466
0001b0 93 69 92 3e 82 44 ea 3d 99 90 e1 3d bd 3f 8a bb
       0.28596172 0.11438848 0.11013908 -0.004219024
0001c0 e2 7f 51 3e ca 4b 73 3e 46 8f 6d bd 96 f2 3e be
       0.2045894 0.2375938 -0.057997964 -0.18647227
0001d0 9c 08 ba be 79 3b 99 be 8f 24 a0 3d 0d c6 c3 3d
       -0.36334693 -0.29928187 0.07819473 0.095592596
0001e0 92 27 96 3e 9e 65 8c be 52 aa 24 bc 42 48 e6 bd
       0.29327065 -0.27421278 -0.010050373 -0.11244251
0001f0 aa 36 88 be 3a 6b 70 bd 3a 9c 95 be 28 33 0f 3d
       -0.26604205 -0.05869601 -0.29220754 0.034960896
000200 53 4b b6 3d 1d c2 1a bd 4a fc ab 3d 90 bd 60 3e
       0.08901086 -0.037782777 0.0839773 0.21947312
000210 1b 5d 62 bb d0 28 d6 3c a7 24 45 3c fc ff c0 be
       -0.0034540358 0.026142508 0.012032664 -0.376953
000220 76 66 81 3a 55 70 16 3e 4b 3a 34 3e 32 fb 2d 3d
       0.0009872455 0.14691289 0.17600362 0.042475887
000230 c0 92 1e 3e ad 2a 20 3d f3 02 9d be 4f cd 02 3e
       0.15485668 0.0391032 -0.30666313 0.12773632
000240 70 89 40 3e e8 cd f5 3d 24 97 d2 3c 3b 7a b7 be
       0.18802428 0.12002164 0.025706835 -0.35835442
000250 ff 07 83 3d 52 c5 1e 3c 94 c8 f9 bd 09 1a 81 bb
       0.063980095 0.0096905995 -0.1219646 -0.003939871
000260 7f 60 9c be b6 b3 7a 3d 1b 12 a0 be c4 ab 26 3e
       -0.3054237 0.061206542 -0.31263813 0.16276461
000270 ed bb ef 3d ae f8 ba 3d 75 86 be 3d 40 d1 a1 3d
       0.11705766 0.09129463 0.093029894 0.079012394
000280 c8 4d 53 bc 64 20 3c 3d a2 ed 52 be b9 81 ad be
       -0.012896962 0.045929328 -0.20598462 -0.33888033
000290 67 25 87 3e 9c c9 f9 be 8f 8e 08 3e ad 70 c2 3d
       0.26395723 -0.48786628 0.13335632 0.094941474
0002a0 33 83 35 be 40 c0 19 3e ee 14 42 be f0 0c 4c 3e
       -0.1772583 0.15014744 -0.18953297 0.1992681
0002b0 48 2a 2d 3e a5 93 6f 3d dc 52 1a 3d 10 21 cc be
       0.1691066 0.058490414 0.037676677 -0.39868975
0002c0 3a 29 2d 3e a0 88 21 3d a9 0a 8f 3e 50 50 96 3d
       0.16910258 0.039436936 0.2793782 0.07339537
0002d0 77 86 1a be b5 12 e1 3d 38 47 0e be 47 a9 c8 be
       -0.15090357 0.10989896 -0.13894355 -0.39191648
0002e0 76 7c a2 3c d1 aa 93 3d a9 d4 33 3e c2 3c 1b 3e
       0.019834738 0.07210315 0.17561592 0.15159896
0002f0 f1 8b f9 3c 5a 91 04 3e 2d 6a 62 3d e6 07 c0 3d
       0.030462237 0.12946072 0.05527704 0.093765065

fc1.weight_sampler.rho f4 [64, 3]
000000 51 72 db c0 71 1c e1 c0 a2 8b de c0 de 88 e4 c0
       -6.8577046 -7.034722 -6.954545 -7.1417074
000010 5d 4e da c0 ca 19 e3 c0 44 ea e0 c0 c9 7a dd c0
       -6.822066 -7.096898 -7.028597 -6.9212384
000020 4a 4b de c0 ee 6b e0 c0 6b 44 e4 c0 ce fb e0 c0
       -6.9466906 -7.013175 -7.133352 -7.030738
000030 b3 35 dd c0 63 ae e1 c0 ea 97 dc c0 cf 4c e4 c0
       -6.912805 -7.0525374 -6.893544 -7.134376
000040 8f 77 e4 c0 b9 37 e3 c0 db d8 e2 c0 9c 11 df c0
       -7.1395946 -7.100552 -7.0889716 -6.9708996
000050 8d 6c dd c0 5d 9d de c0 33 6b e0 c0 d4 c2 e6 c0
       -6.919501 -6.9567094 -7.013086 -7.2112827
000060 d4 c7 e1 c0 ea ee df c0 54 f3 e5 c0 4f d0 d7 c0
       -7.055643 -6.9979143 -7.185953 -6.7441783
000070 f5 63 de c0 7f 6a df c0 f0 5a df c0 24 72 e4 c0
       -6.949702 -6.98175 -6.979851 -7.138933
000080 07 d9 e1 c0 58 35 e2 c0 f3 d8 df c0 53 c6 e5 c0
       -7.0577426 -7.0690117 -6.995233 -7.1804595
000090 95 b0 e1 c0 b7 a6 e1 c0 5a 4d d9 c0 05 33 da c0
       -7.0528054 -7.051601 -6.7906923 -6.818728
0000a0 42 d8 e3 c0 40 50 de c0 1d 3b e2 c0 f5 49 de c0
       -7.1201487 -6.947296 -7.069716 -6.946528
0000b0 70 1f e2 c0 10 cd e3 c0 34 f8 e1 c0 4d 91 df c0
       -7.0663376 -7.118782 -7.061548 -6.986487
0000c0 13 d7 df c0 15 3e e0 c0 a0 bb e3 c0 75 b6 e3 c0
       -6.995004 -7.0075784 -7.1166534 -7.1160226
0000d0 e0 84 e4 c0 f6 57 dd c0 a5 6f e3 c0 e3 67 da c0
       -7.14122 -6.9169874 -7.1073785 -6.8251815
0000e0 b3 59 de c0 42 cf e2 c0 8c 91 de c0 fd f1 df c0
       -6.9484496 -7.0878 -6.955267 -6.9982896
0000f0 48 dd e0 c0 96 83 e2 c0 8b 26 e0 c0 e9 7c e2 c0
       -7.027012 -7.0785627 -7.004705 -7.077748
000100 02 8b e0 c0 6b 67 dd c0 b8 da db c0 bf ef dd c0
       -7.0169687 -6.9188743 -6.870449 -6.935516
000110 72 ac e1 c0 5d 33 de c0 59 e2 e5 c0 6f 4a db c0
       -7.0523005 -6.94377 -7.1838803 -6.852836
000120 5d 8f e2 c0 ff 23 e1 c0 f0 57 e3 c0 14 15 e0 c0
       -7.0800004 -7.035644 -7.1044846 -7.002573
000130 b9 a0 e5 c0 3c 1b e3 c0 de 72 e0 c0 e2 bc dd c0
       -7.1758695 -7.0970745 -7.014022 -6.929307
000140 0f 2c df c0 30 e8 e0 c0 cd 65 e0 c0 62 0c db c0
       -6.9741282 -7.028343 -7.012427 -6.8452616
000150 9b 70 e1 c0 23 83 dc c0 05 9a dd c0 d6 50 e3 c0
       -7.044996 -6.891008 -6.925051 -7.1036177
000160 88 a8 e2 c0 48 bd df c0 b0 b5 d6 c0 23 16 e1 c0
       -7.0830727 -6.9918556 -6.7096786 -7.033952
000170 6b 0a e1 c0 e1 93 dc c0 bd 33 de c0 a6 8c e3 c0
       -7.0325217 -6.8930516 -6.9438157 -7.110919
000180 95 48 e1 c0 24 44 e1 c0 34 c4 e1 c0 2a db e2 c0
       -7.04011 -7.039568 -7.0552006 -7.0892534
000190 13 cf e6 c0 b0 c7 e2 c0 f7 43 e3 c0 06 35 e3 c0
       -7.2127776 -7.086876 -7.1020465 -7.1002226
0001a0 dd 80 df c0 d5 67 e0 c0 8f 39 db c0 42 0e dd c0
       -6.9844804 -7.012675 -6.850776 -6.9079905
0001b0 bd 7e e0 c0 33 ad e0 c0 1a ff de c0 07 20 df c0
       -7.015471 -7.0211425 -6.9686403 -6.9726596
0001c0 c9 f7 df c0 0e bb e3 c0 9b bc df c0 08 2f e0 c0
       -6.998997 -7.116584 -6.991773 -7.005741
0001d0 93 31 e6 c0 a4 9f df c0 67 c8 e1 c0 70 11 de c0
       -7.1935515 -6.9882374 -7.055713 -6.9396286
0001e0 44 ab dd c0 00 91 e1 c0 45 44 de c0 42 ec df c0
       -6.9271564 -7.04895 -6.9458337 -6.99759
0001f0 bf 9e e5 c0 b9 75 df c0 1b 1a de c0 ce 03 e4 c0
       -7.175628 -6.9831204 -6.9406867 -7.1254644
000200 25 dc e3 c0 ec 13 e0 c0 e3 fc e0 c0 a5 96 e5 c0
       -7.120623 -7.002432 -7.03087 -7.174639
000210 db f9 e2 c0 36 fe e0 c0 ae 47 da c0 90 aa e1 c0
       -7.093 -7.0310316 -6.82125 -7.0520706
000220 eb 1e df c0 37 4f de c0 13 1e e3 c0 68 17 e6 c0
       -6.972524 -6.94717 -7.097421 -7.190357
000230 ce 0d da c0 c2 33 de c0 89 2b df c0 54 49 e2 c0
       -6.814185 -6.943818 -6.9740644 -7.071451
000240 f6 66 d9 c0 57 80 e5 c0 0a e7 de c0 43 1d e0 c0
       -6.7938185 -7.1719165 -6.965703 -7.003572
000250 8a e9 e3 c0 af 3b e1 c0 26 b8 e2 c0 dd 49 e0 c0
       -7.122258 -7.0385356 -7.084979 -7.0090165
000260 58 b5 de c0 61 a3 e2 c0 5b 9a da c0 d5 3b e1 c0
       -6.9596367 -7.0824437 -6.831342 -7.0385537
000270 5f 16 e0 c0 32 02 e2 c0 d3 1e e5 c0 58 38 e4 c0
       -7.002731 -7.062768 -7.1600127 -7.131878
000280 84 2c da c0 1f b8 e5 c0 b3 8f de c0 c4 71 d9 c0
       -6.817934 -7.1787257 -6.9550414 -6.7951374
000290 0c 78 df c0 d4 06 e2 c0 4a 7f df c0 b7 4b da c0
       -6.983404 -7.0633335 -6.984288 -6.8217425
0002a0 e0 89 da c0 62 01 da c0 48 34 e1 c0 8b dd e1 c0
       -6.8293304 -6.812669 -7.037632 -7.058294
0002b0 32 dc dc c0 c0 56 e6 c0 61 6d e7 c0 d8 3b de c0
       -6.9018793 -7.1980896 -7.232102 -6.944805
0002c0 e2 32 e3 c0 57 90 e4 c0 c1 72 e3 c0 f9 08 e4 c0
       -7.0999613 -7.1426196 -7.107758 -7.1260953
0002d0 b8 66 e1 c0 4d 51 e2 c0 5b f9 d9 c0 19 0a df c0
       -7.043789 -7.0724244 -6.811689 -6.9699826
0002e0 13 63 df c0 53 01 e1 c0 0f 61 e0 c0 0e f3 e0 c0
       -6.980844 -7.0314116 -7.011848 -7.02967
0002f0 da 7b e3 c0 09 52 e4 c0 ff 4b d8 c0 af 14 e2 c0
       -7.1088686 -7.135014 -6.759277 -7.065025

fc1.weight_sampler.eps_w f4 [64, 3]
000000 24 2a 30 bf 65 45 30 3f 6f 64 6d 3e 3f db 95 3f
       -0.688143 0.6885589 0.23182844 1.1707534
000010 88 b3 2d bf bf 40 b3 3f 46 d2 28 3e 24 d9 61 bf
       -0.6785207 1.4004134 0.16486463 -0.88221955
000020 c4 da 3e 3e 3a 9a 07 40 a5 cd 5a 3f 81 aa bb be
       0.1863814 2.1187882 0.8547004 -0.36653522
000030 b5 b3 81 be 60 c5 c8 bf 70 f4 01 3d fd ab b9 3f
       -0.25332418 -1.5685234 0.031727254 1.4505612
000040 bf b2 b7 3d cc 02 18 be 7b 32 d6 be da dd 01 c0
       0.0896964 -0.14844817 -0.4183539 -2.0291657
000050 50 84 d4 3e a2 f7 ad bd 7a db 25 bf d2 63 99 be
       0.41507196 -0.08494498 -0.6478802 -0.2995897
000060 ce bd 3a bf eb b5 20 bf da 79 da 3e 46 09 14 3f
       -0.7294587 -0.62777585 0.4267109 0.5782665
000070 18 de 29 3d cb ce aa 3e ba fd 55 3f 6c 42 cd be
       0.04147157 0.33360896 0.8359028 -0.40089738
000080 75 d4 e6 be 7c 5c c9 be 3c 09 77 3e a3 13 63 bf
       -0.45083967 -0.39328372 0.24124616 -0.8870184
000090 7d 42 0c 3e 17 bc a3 3f 15 23 89 3f a2 06 f7 be
       0.13697238 1.2791775 1.0713831 -0.48247248
0000a0 4b fa 74 bf 51 11 3e 3f ec 4c 0b 3f aa 38 4c 3f
       -0.95694417 0.7424517 0.5441425 0.7977396
0000b0 59 3d e1 3e 68 ff b3 bd 8a 2c cb be aa 9b 56 bd
       0.43992117 -0.08788949 -0.39682418 -0.052394547
0000c0 68 cb b5 bb d3 a7 7c bf fe 84 ea bf 43 7f 0d bf
       -0.0055479296 -0.9869358 -1.8321836 -0.5527231
0000d0 f3 47 6a 3f aa 60 c4 3e b6 33 c7 3d b5 80 a8 3f
       0.91516036 0.38355 0.0972666 1.3164278
0000e0 43 86 a1 bf 0a 9d d3 bf a8 a1 54 bf 19 9f 96 be
       -1.2619098 -1.65323 -0.8305917 -0.29418257
0000f0 a0 ad 3b bf b5 3d 1a 40 50 16 00 be dd 5f 6b 3e
       -0.73311806 2.4100163 -0.12508512 0.22985788
000100 29 7f 8b 3d d2 64 02 3f c4 55 dc 3f bb 46 ca bf
       0.06811363 0.5093509 1.7213674 -1.5802835
000110 e5 93 20 bf 24 68 9a 3e 9a f1 4d 3f b6 15 3a bf
       -0.6272567 0.30157578 0.8044678 -0.7268938
000120 46 51 8c bf 36 96 83 3d 84 8b 26 40 59 c6 9f 3f
       -1.0962303 0.06425135 2.6022654 1.2482406
000130 07 c8 70 3f 84 ba 8d bf 05 a8 09 3f 95 b0 26 3f
       0.9405522 -1.1072545 0.53772 0.6511319
000140 fd 14 42 be 1b f4 55 bf b1 6e 3f bf c0 f8 ae be
       -0.18953319 -0.835756 -0.74778277 -0.34174156
000150 4a 6f 83 3f 8c 22 2a bd aa 9b 8f bf 21 c6 5d bf
       1.0268338 -0.041536853 -1.121938 -0.86630446
000160 4b 5a bf bf 60 65 f0 3e 07 00 bc 3e 12 2f 50 3f
       -1.494943 0.46952343 0.3671877 0.81321824
000170 c4 e1 55 bf 64 43 bd bf 2d dd 80 3c 6b 94 a3 3f
       -0.83547616 -1.4786191 0.015730465 1.2779669
000180 c9 a6 ab 3f ef c3 84 bf e9 90 bb be d9 da 92 bf
       1.3410274 -1.0372294 -0.36633995 -1.1473037
000190 85 28 4e 3f b4 57 86 bf f8 f0 a8 bc d7 0d 69 bf
       0.8053058 -1.0495515 -0.020622715 -0.9103674
0001a0 fc af 35 bf d7 ea a4 3e c0 12 77 bf 4f 19 d9 3e
       -0.70971656 0.3221042 -0.96512985 0.4240212
0001b0 55 75 21 3d 8d 0f 9d 3f 49 8e 32 3f 89 e9 0c 3f
       0.039418537 1.2270371 0.6974836 0.55043846
0001c0 48 b9 b3 bf 09 13 9c 3f fe fe 5a bf d7 c6 9e 3f
       -1.4040918 1.2193309 -0.8554534 1.2404431
0001d0 ee c6 da bf ca b2 a8 bf a5 2b 38 bf ca 1d 12 3f
       -1.7091959 -1.3179562 -0.71941596 0.57076705
0001e0 bb 5b 4e bf 09 c1 0c bf ab da 3d bf c2 14 33 3e
       -0.8060872 -0.5498205 -0.74161786 0.17488387
0001f0 f5 c5 55 3e ff 59 7f 3e 1d cc 06 bf 40 9c 61 be
       0.20876296 0.24936675 -0.526552 -0.22032261
000200 72 cb bd bf ad 83 bd bf aa d2 11 be 7f f9 07 bd
       -1.4827712 -1.4805809 -0.14240518 -0.033196922
000210 2b fe 82 bf 3c 34 f6 3e f7 be 7d bf 9d d8 14 bf
       -1.0233816 0.48086727 -0.99119514 -0.58143026
000220 4c eb 11 bf 1f a3 a1 3f bf 0f 84 3e c7 a8 9a bf
       -0.5699966 1.2627906 0.25793263 -1.2082757
000230 97 ef 3c bf c9 4a 74 3f 7b 61 c1 bf d2 e8 3c 3e
       -0.73803085 0.95426613 -1.5107874 0.18448189
000240 d7 77 d0 3e aa 38 d8 3f 1f 14 12 3e 75 5e e5 3e
       0.4071643 1.6892292 0.14265488 0.44798627
000250 57 95 b6 3f ed e6 56 bf 3a 7f 9e bf 61 5c 75 3f
       1.4264325 -0.83946115 -1.2382576 0.95844084
000260 69 79 83 bf c5 d0 6d 3e ba 96 ff bf 52 b4 20 40
       -1.0271426 0.2322417 -1.9967873 2.5110059
000270 73 6f e8 bf 45 08 0c 40 f7 6f 31 3f a8 8e ff bd
       -1.8159012 2.1880047 0.6931147 -0.124783814
000280 62 c4 68 3f c2 53 1e bf 83 cf d4 3c 74 76 a1 3f
       0.90924656 -0.61846554 0.025977856 1.2614274
000290 94 e8 f6 3f cb 28 2b 3f 32 32 bd 3f 73 db c1 3e
       1.9289727 0.6685912 1.4780943 0.3786274
0002a0 eb c0 d2 bf d1 9a e1 bf a9 70 00 40 22 2a a8 3e
       -1.6465124 -1.7625371 2.0068762 0.32844645
0002b0 62 77 b5 bf 2b f9 2c bf 2f f1 0d bf 42 e1 3a 3f
       -1.4177058 -0.675677 -0.5544614 0.72999966
0002c0 6b 20 b0 bf 97 54 66 3f 3a b2 50 bf b5 7c 82 bf
       -1.3759893 0.89972824 -0.8152195 -1.0194308
0002d0 52 96 3c bf 37 e0 9a 3f 39 94 b6 3e 15 de 54 3f
       -0.7366687 1.2099675 0.3565996 0.8315137
0002e0 b5 18 ad 3f 6f 6c 48 3f 7d ac eb bf c7 8f ad 3e
       1.3523165 0.78290457 -1.8412014 0.33898756
0002f0 e4 87 05 be c9 4d 7a 3f 90 41 ce bd d5 d6 20 bf
       -0.1304012 0.9777494 -0.10071099 -0.6282781

fc1.bias_sampler.mu f4 [64]
000000 28 b6 01 be 05 e5 92 3c 7d e6 d4 bc 5b d9 24 bb
       -0.12667143 0.01793147 -0.025988812 -0.0025153968
000010 77 6a 25 3d 6f 8a d5 3d 73 14 34 be 6c 53 05 be
       0.040384736 0.10426795 -0.17585926 -0.13020104
000020 ac 45 57 bd c0 df 5a bd ba 51 0b be f2 bb 5a be
       -0.05255668 -0.05343604 -0.13605395 -0.21360758
000030 17 00 a3 3e 58 3b a7 bd 96 89 60 3d 51 51 61 bd
       0.31836006 -0.08165616 0.054818712 -0.05500919
000040 26 2f 8c 3d 72 ab e5 3d 0c d3 40 3d c6 cb 20 3e
       0.0684493 0.11214341 0.04707627 0.15702733
000050 37 0e db bd 0e 6a 07 bd d9 a1 0f be 3f 53 05 3e
       -0.10696071 -0.033060126 -0.14026584 0.13020037
000060 6e 92 29 3e e0 b0 fa 3d 04 4b 0d be 11 ea 32 3d
       0.16559765 0.122407675 -0.13798147 0.043680254
000070 b6 96 0a bd af d0 9a 3d e8 56 85 3d 46 0c 21 3b
       -0.033835135 0.075593345 0.06510717 0.0024573966
000080 ed 3f 61 bd bc f2 4d bd 47 1d 91 bd e9 ac 3f 3d
       -0.054992605 -0.050280318 -0.07085662 0.04679576
000090 7d 8c 21 bd d2 ee a6 3d 04 a2 61 3d e0 2b d9 bc
       -0.03944062 0.0815102 0.05508615 -0.026510179
0000a0 75 26 5f 3c b7 ee 28 3e 42 b1 93 3d 03 2f 13 be
       0.013620009 0.16497312 0.072115436 -0.14373402
0000b0 83 9a 05 be f7 ec c6 3d 4d b3 a9 bd 8b b6 40 bc
       -0.13047223 0.09713166 -0.08286152 -0.011762272
0000c0 f8 ee 3f 3a 59 57 28 3e 32 a1 a6 bc 41 6c 04 be
       0.0007321681 0.1643957 -0.020340536 -0.1293192
0000d0 a5 f6 30 3c d0 64 c4 3e 63 25 03 3e 34 78 fa 3c
       0.010800992 0.38358164 0.1280723 0.030574895
0000e0 46 4d ea 3d 53 ef ad bd a5 eb 0e be a6 2d cf 3d
       0.1144052 -0.08492913 -0.13957079 0.101161286
0000f0 5c 08 bd 3d c3 21 31 3e 01 96 1a bd 91 7f 32 3c
       0.0923011 0.17298035 -0.03774071 0.010894672

fc1.bias_sampler.rho f4 [64]
000000 17 99 e1 c0 48 1a df c0 16 bb dc c0 80 f1 da c0
       -7.0499377 -6.971958 -6.8978376 -6.84198
000010 b4 d7 df c0 5f f3 df c0 26 56 e3 c0 8c 95 dc c0
       -6.995081 -6.9984584 -7.104266 -6.893255
000020 0f c0 dc c0 da fd e6 c0 26 a6 de c0 cc 38 d9 c0
       -6.8984447 -7.2184877 -6.957782 -6.788183
000030 39 97 df c0 a8 f0 df c0 0d 28 e4 c0 48 31 df c0
       -6.98721 -6.998127 -7.129889 -6.974766
000040 c1 8e dd c0 d4 d3 de c0 63 eb da c0 37 ad e6 c0
       -6.923676 -6.963358 -6.8412337 -7.2086444
000050 9c da e3 c0 0a ae de c0 2d d5 e0 c0 8a 99 df c0
       -7.1204357 -6.958745 -7.0260224 -6.9874926
000060 75 fe e1 c0 84 f0 e1 c0 ba ff e4 c0 6e 0b da c0
       -7.0623116 -7.06061 -7.1562166 -6.813895
000070 ac 40 e2 c0 76 62 e5 c0 a9 58 da c0 46 90 de c0
       -7.0703945 -7.168269 -6.823323 -6.9551115
000080 c9 19 dd c0 f4 80 e0 c0 7f 5c df c0 a7 b8 e3 c0
       -6.9093976 -7.0157413 -6.980041 -7.1162906
000090 7d 82 e0 c0 bd 10 dc c0 c7 90 df c0 a1 4e df c0
       -7.0159287 -6.8770432 -6.986423 -6.9783483
0000a0 9f 97 e0 c0 e3 2f dd c0 f3 45 de c0 e8 f6 dd c0
       -7.0185084 -6.9120955 -6.9460387 -6.93639
0000b0 f5 19 df c0 f4 4e db c0 e7 00 dd c0 aa 3c e0 c0
       -6.9719186 -6.853388 -6.90636 -7.0074053
0000c0 54 48 dd c0 de e3 e2 c0 e5 fa e1 c0 f2 63 db c0
       -6.915079 -7.090316 -7.061877 -6.8559504
0000d0 0a 6b e0 c0 15 c2 df c0 ee 10 e2 c0 48 bc de c0
       -7.0130663 -6.9924417 -7.0645666 -6.9604836
0000e0 95 01 e0 c0 6b 8a de c0 c0 77 da c0 ab 47 df c0
       -7.000193 -6.9543967 -6.827118 -6.9774985
0000f0 fc d3 de c0 f5 94 e0 c0 1f 76 de c0 f0 7b dd c0
       -6.963377 -7.018183 -6.951919 -6.921379

fc1.bias_sampler.eps_w f4 [64]
000000 51 9d 5e 3f a5 d9 b8 3d b2 38 4c 3f 19 5a 3d be
       0.86958796 0.090258874 0.7977401 -0.18491401
000010 dd aa a4 3e 83 66 a3 be e6 37 92 3e 60 68 a3 bf
       0.32161608 -0.31914148 0.28558272 -1.2766228
000020 ac d8 16 bf 84 00 89 3f 93 eb c4 bf 58 19 18 3f
       -0.58924365 1.0703282 -1.5384392 0.5941367
000030 b7 0b 65 bd 8a a4 16 3f c7 fa 26 3f 37 6e 46 3f
       -0.055919375 0.58844817 0.65226406 0.77511925
000040 16 6d 2d 40 4b 33 32 be ca 20 00 3e 00 85 a6 bf
       2.709783 -0.17402379 0.12512508 -1.3009338
000050 95 2f 47 bf c2 64 ae 3e 2e 83 73 bf de be 1a 3f
       -0.7780698 0.34061247 -0.9512204 0.6044749
000060 fc 0e e0 3f 2f 84 e7 3f 60 69 3d 3f d8 bf 3c 3d
       1.7504573 1.8087214 0.73988914 0.046081394
000070 02 5d 5b 3f f6 1c 9f 3f 71 56 98 be b5 3b 8f bf
       0.85688794 1.2430713 -0.2975345 -1.1190096
000080 87 f9 84 bf cf 55 43 3f 29 7f 05 3d 3b 6d 9b be
       -1.038865 0.7630281 0.032591973 -0.30356774
000090 b0 45 5f 3f d9 f2 57 3e 5c 46 2a 3f 42 b9 97 bf
       0.8721571 0.21088733 0.6651361 -1.1853411
0000a0 b8 bb 2a bf c6 55 4a be b7 06 37 3e a3 7b c2 3f
       -0.66692686 -0.19759282 0.17873655 1.5193981
0000b0 eb 9f e6 bf 7b 70 d6 bd a1 7d 18 3f c1 f2 1d 3f
       -1.8017553 -0.10470673 0.59566694 0.6169854
0000c0 0a 37 ba 3f 91 fc 0f c0 0c 18 9e bf dc ca 5d 3f
       1.4548047 -2.2497904 -1.2351089 0.86637664
0000d0 62 37 11 bf 39 cd 22 3f b6 85 1d 3d 9d 53 67 3e
       -0.5672513 0.63594395 0.038457595 0.2259049
0000e0 b8 af 13 bf c7 b4 33 be 3b f0 96 bb 98 17 bf 3f
       -0.5769 -0.1754943 -0.0046062744 1.4929075
0000f0 4d f6 04 c0 1c 1f a3 3f c3 d8 bc bf 08 86 b1 3f
       -2.077533 1.2743869 -1.475365 1.3869028

fc2.weight_mu f4 [32, 64]
000000 45 85 b0 3e 50 fc 80 3d 36 15 64 3d 47 11 7e bd
       0.34476677 0.06298125 0.05568429 -0.062028196
000010 5d ba e1 3c 80 58 85 3e 65 56 14 3f 3b bd ac be
       0.027554685 0.26044083 0.5794433 -0.3373812
000020 15 99 4d bd e5 aa 35 be f7 1a 90 3b 41 a0 ac ba
       -0.05019482 -0.17740972 0.0043977457 -0.0013170318
000030 a9 fa f2 3d 73 83 1a be fb c6 1b 3e b6 dc 88 bd
       0.11864216 -0.15089206 0.15212624 -0.06682722
000040 ba 89 7e 3e dd 83 93 bc 23 04 b7 3d b5 03 a4 3d
       0.24857226 -0.018007213 0.08936336 0.080085196
000050 a3 ee 6b 3a d7 96 d3 bd 6e b5 07 be 26 f0 26 3d
       0.0009000098 -0.10331505 -0.13252804 0.040756367
000060 c8 d1 9a 3d fc af 03 bd 52 58 1e 3e 12 4a 1b be
       0.07559544 -0.032150254 0.15463379 -0.15164974
000070 77 25 c6 bc 6e 29 29 3e f6 b6 d2 3d 32 7b 7f bd
       -0.024187787 0.1651971 0.10288803 -0.062373348
000080 b9 f2 d0 3d eb 97 12 be fd f1 2e 3d f4 ec 84 3d
       0.10202546 -0.14315765 0.042711247 0.06490508
000090 f8 5d a5 bd 4f 39 aa 3b 09 36 1e 3e b6 21 3b 3e
       -0.08074564 0.00519482 0.154503 0.18274578
0000a0 a7 1e 96 bd b3 8c 12 3e 18 86 8d 3e 2e 3b 90 3e
       -0.07330065 0.14311485 0.27641368 0.2817015
0000b0 9f 17 42 bd 88 6e 28 3e ef 5d fd bc 7c 6c 60 3e
       -0.047385808 0.16448414 -0.03092858 0.21916384
0000c0 b1 21 d3 3c 09 1b 44 bd f2 56 ca 3e 6c c0 7c 3e
       0.025772901 -0.047877345 0.3951946 0.24682778
0000d0 62 ca 6b bd ad 8b 90 3d 77 22 97 3d 02 70 cc 3d
       -0.057566054 0.07057891 0.073796205 0.09982301
0000e0 29 99 55 3e 44 7e 0f bd bf 41 97 3e 32 5c a2 3d
       0.20859207 -0.035032526 0.29542348 0.07927741
0000f0 2b 19 75 3d ed 0a c6 3e dd 02 3f bd e1 e6 00 bd
       0.059838455 0.3868021 -0.04663359 -0.031470183
000100 0b d0 c1 3c 08 29 63 bd 07 17 80 3d 8e 50 37 3e
       0.023658773 -0.055459052 0.06254392 0.17901823
000110 d5 40 ec 3d 21 d6 cf be 00 d1 e0 3c e0 ed 43 3e
       0.11535803 -0.40593055 0.027443409 0.19133711
000120 e9 07 20 3d 4f 1c a3 3d bd 28 03 3d c5 b1 5b be
       0.039070044 0.07964384 0.032021273 -0.21454532
000130 92 2d 9b 3c c1 36 50 3d c0 7c 52 3e 9e 3e 9d bd
       0.018942628 0.050833467 0.20555401 -0.07677959
000140 0e de b1 3d fd a7 09 3e 33 db 55 bd a1 5c 67 bc
       0.08684932 0.13442989 -0.052210998 -0.014121206
000150 d4 c7 fb 3c ea c9 ea 3c 56 96 bb 3d 78 94 c2 3d
       0.030734934 0.028660733 0.09159534 0.095009744
000160 2f e4 47 3d 2a 7b 90 bd be e1 27 be 18 bc 26 3d
       0.048801597 -0.07054742 -0.16394708 0.040706724
000170 71 2b 00 3e b9 14 53 bc 97 98 9a bd 9c 2c 9b 3e
       0.12516572 -0.012883359 -0.075486355 0.30307472
000180 19 dc b4 3d 60 ac a9 3d 1b 40 73 bd 23 7c 1b 3c
       0.08831043 0.08284831 -0.059387308 0.009490046
000190 cf 67 38 bd cf 74 62 3d fa aa 42 3e af 49 95 be
       -0.045020875 0.05528718 0.19010535 -0.2915778
0001a0 17 cb 6b be 89 33 6e 3d d0 9f 5a be b9 61 e6 3d
       -0.23026691 0.058154617 -0.21350026 0.11249108
0001b0 38 33 f8 3d c5 ae c3 bd 79 de c0 3d f6 51 a5 bd
       0.12119144 -0.09554819 0.09417433 -0.080722734
0001c0 11 e9 1c 3e 47 09 27 bd c3 db d2 bc a6 f6 e7 bd
       0.15323283 -0.040780332 -0.025739556 -0.11326341
0001d0 38 46 12 3d 11 78 28 3e c4 e5 2b bd 82 e8 93 be
       0.035711497 0.16452052 -0.04196717 -0.28888327
0001e0 d6 af 03 3e ce 54 f2 bc 61 d5 42 bd 77 7b db bc
       0.12860045 -0.029581454 -0.047566775 -0.026792271
0001f0 9d 98 ee bd 22 20 6d be bb 31 09 3e 71 38 b1 3d
       -0.116502024 -0.23156789 0.13397877 0.086533435
000200 64 34 7e 3e 95 9f a9 bd 44 aa 47 3e b5 93 71 bd
       0.24824673 -0.08282391 0.19498545 -0.058978755
000210 a6 b7 ff bd d0 bd 98 be be c2 52 be 11 af 49 3d
       -0.124862 -0.29832315 -0.20582101 0.049239222
000220 45 97 c6 3d d5 0d b9 3d 7d eb 3a 3e e8 d4 08 bf
       0.09696821 0.090358414 0.18253894 -0.5344987
000230 03 54 9a 3d 68 e9 a1 3d 2e f5 e4 bd 6c 26 ba bd
       0.07535555 0.07905847 -0.11179577 -0.0908936
000240 c6 a0 ae 3c f9 5c 7a 3d 92 fb 21 be b4 23 0e 3d
       0.021316897 0.061123822 -0.15818623 0.034702018
000250 d3 86 17 3d d6 52 96 bd 58 72 98 3e 7b 36 73 bd
       0.036993813 -0.073400185 0.29774737 -0.05937813
000260 69 e6 e2 bd 78 5a f5 be 01 1c 31 bf b2 60 a5 3e
       -0.110791035 -0.47920585 -0.69183356 0.32300335
000270 8b 2a e6 3d 21 10 a8 bd 04 b6 3c 3d 6b f5 7c bc
       0.11238583 -0.08206201 0.04607202 -0.015439372
000280 1f d9 b4 3e 3a a9 45 bd 7f ed 65 3d ca 0c 03 bf
       0.353219 -0.04825709 0.056134697 -0.5119139
000290 db 4b f1 bc 1d ed 18 3e 3f b5 2c 3e d9 00 81 be
       -0.029455116 0.14934202 0.16866015 -0.2519596
0002a0 54 5a 9d be 55 2e e1 3d 00 1d bd be 65 eb 83 3e
       -0.30732977 0.10995165 -0.36936188 0.2576553
0002b0 dd ce 38 3d da 38 cb bd 30 9b 00 3e 2e 9d 64 be
       0.045119155 -0.09922953 0.125592 -0.22325584
0002c0 41 98 61 3d ab d1 ab be 04 66 f2 3b 59 84 54 be
       0.05507684 -0.335584 0.007397415 -0.20753612
0002d0 1b 7b 44 3d 71 e8 07 bd 6c 18 23 be 36 cc 44 be
       0.047968965 -0.033180658 -0.15927285 -0.19218525
0002e0 4f bd 59 be 96 f0 ed 3d 5a 88 b8 be 84 6c 94 3d
       -0.21263622 0.11618154 -0.36041528 0.0724726
0002f0 30 1c a1 be 4e 0f 94 be 52 49 32 be 7f 7e d3 3d
       -0.31466818 -0.28917927 -0.17410782 0.103268616
000300 a7 fe f5 bd 06 ae fe bd 10 0b aa 3d 48 92 96 bc
       -0.12011462 -0.12435536 0.08302891 -0.0183803
000310 7d ee 6b bd 24 c6 d2 3c ed 64 0b bd 2b 32 41 3e
       -0.057600487 0.025729246 -0.034031797 0.18866794
000320 d0 51 e0 bd 76 2d ab 3e 13 fb 32 be ee 26 a2 3e
       -0.109531045 0.3343312 -0.1747859 0.31670326
000330 22 5a 05 3e 07 fd 92 3e 69 d4 c9 3d f9 f3 2b 3e
       0.13022664 0.2870867 0.09854967 0.16792287
000340 17 94 da 3d 34 84 81 be 1e 6c 23 3e 2a 50 1b be
       0.10672777 -0.25296175 0.15959212 -0.15167299
000350 e9 5e c6 3c d9 f9 0a 3e eb 57 8b 3e 94 29 91 3d
       0.024215179 0.13571872 0.27215514 0.070880085
000360 c4 35 91 3d a5 18 02 3e 89 bf 97 3e 30 88 38 bb
       0.07090333 0.12704714 0.29638317 -0.0028157346
000370 ad e6 12 3d ed f5 3e 3d 0f ce b7 bb d6 f5 4f 3d
       0.03586452 0.04662125 -0.005609281 0.050771557
000380 f2 42 7a be 45 4d 87 bc 52 fa 57 3e 86 cc e6 3b
       -0.244396 -0.016516337 0.21091583 0.007043424
000390 f5 c8 38 3e 58 f4 79 bd 68 ef 6c bd e4 f3 b2 bd
       0.18045409 -0.06102404 -0.057845503 -0.08737925
0003a0 89 3c e7 3d b3 cd 9f 3d 0a b9 1f bd 36 a2 a0 be
       0.11290843 0.07802906 -0.038994826 -0.31373757
0003b0 55 9b 26 3d db 5e 06 3e b7 ba d5 3e 96 1f 66 39
       0.04067548 0.13122122 0.41744015 0.00021946276
0003c0 21 75 e9 bd d2 04 8d 3e 99 2b 1b bc d1 2a cf bd
       -0.11399294 0.2754274 -0.009470844 -0.101155885
0003d0 0a bc 5e bb ea 5e 3a 3b 5a 9d 20 3e ce a7 58 3e
       -0.0033986592 0.002843792 0.15685025 0.21157762
0003e0 24 9a 5e 3d ad 07 ed 3d 32 79 ce bd a3 90 9b bd
       0.05434622 0.1157373 -0.1008171 -0.07595947
0003f0 d6 60 08 3e d2 8e 66 3c 54 6d c3 3c 56 f7 f8 3d
       0.1331819 0.014072137 0.023855843 0.121565506

fc2.weight_rho f4 [32, 64]
000000 8b 18 df c0 d9 e1 df c0 ac 65 e2 c0 ea 84 db c0
       -6.971746 -6.9963193 -7.074911 -6.859975
000010 c1 92 e1 c0 03 83 db c0 f2 37 d7 c0 93 4d de c0
       -7.0491643 -6.8597426 -6.7255793 -6.9469695
000020 74 6e e2 c0 4c 35 e3 c0 33 95 df c0 6c 1f da c0
       -7.075983 -7.100256 -6.986963 -6.8163357
000030 81 5c e2 c0 5e cf df c0 f0 e7 df c0 d0 11 e0 c0
       -7.073792 -6.9940634 -6.9970627 -7.0021744
000040 85 66 e2 c0 7e c0 de c0 7e 6a e0 c0 dc 9f d9 c0
       -7.0750146 -6.9609976 -7.0129995 -6.800764
000050 61 1e e0 c0 2e 55 e0 c0 49 d4 dd c0 26 aa e4 c0
       -7.0037084 -7.010398 -6.9321637 -7.14577
000060 16 7f e0 c0 26 2a df c0 39 6f de c0 c4 f0 de c0
       -7.0155134 -6.973895 -6.951077 -6.9668903
000070 e8 f3 e4 c0 44 c6 de c0 0b 5f e1 c0 71 4d de c0
       -7.1547737 -6.9617023 -7.042852 -6.9469533
000080 b5 e7 df c0 36 cf dd c0 d3 01 e0 c0 95 5c dd c0
       -6.9970345 -6.9315443 -7.0002227 -6.9175515
000090 48 28 dd c0 d7 cc e3 c0 96 44 e0 c0 b8 8c e0 c0
       -6.911167 -7.118755 -7.0083723 -7.0171776
0000a0 c8 17 e4 c0 02 63 db c0 02 cf e0 c0 e2 0c e4 c0
       -7.127903 -6.855836 -7.0252695 -7.1265726
0000b0 b1 65 dd c0 32 10 e7 c0 86 d2 de c0 18 52 df c0
       -6.9186635 -7.220727 -6.9631987 -6.978771
0000c0 2f 82 e3 c0 3a 75 e1 c0 aa 5f e5 c0 f3 f3 e0 c0
       -7.1096416 -7.04556 -7.1679277 -7.029779
0000d0 bf 0a e4 c0 d5 72 dd c0 a4 27 e4 c0 ce 12 e2 c0
       -7.126312 -6.9202676 -7.129839 -7.0647955
0000e0 df b9 e8 c0 79 f3 e5 c0 79 53 dd c0 b5 a5 df c0
       -7.2726893 -7.185971 -6.9164395 -6.988978
0000f0 c7 b2 e2 c0 c1 ee de c0 b2 fb dd c0 b2 3a db c0
       -7.0843234 -6.966645 -6.9369745 -6.850915
000100 cf 2e e0 c0 be 7e da c0 54 46 df c0 56 46 e3 c0
       -7.005714 -6.8279715 -6.977335 -7.102336
000110 cb 4e df c0 8b ff de c0 82 9f e2 c0 0d 88 df c0
       -6.9783683 -6.968694 -7.081971 -6.9853578
000120 47 88 e0 c0 fd c6 dc c0 8b a3 e3 c0 b4 1f da c0
       -7.0166354 -6.8992906 -7.1137137 -6.81637
000130 b6 44 df c0 8b 96 e0 c0 52 98 dc c0 ae 99 de c0
       -6.9771376 -7.018377 -6.893594 -6.9562597
000140 28 01 dd c0 18 33 e1 c0 67 4d da c0 55 97 e4 c0
       -6.906391 -7.037487 -6.8219485 -7.143473
000150 5a d1 e0 c0 ad 09 dd c0 d3 6c db c0 a1 d7 dc c0
       -7.0255556 -6.907431 -6.857034 -6.901322
000160 72 07 e3 c0 4a 77 e2 c0 93 eb e1 c0 2e 07 de c0
       -7.094659 -7.0770617 -7.0600066 -6.9383764
000170 02 e0 db c0 b6 ce de c0 dd c3 e1 c0 4b 04 e3 c0
       -6.8710947 -6.9627333 -7.055159 -7.094274
000180 8b 24 e0 c0 3a 88 de c0 40 0f e1 c0 64 18 e6 c0
       -7.004461 -6.954129 -7.0331116 -7.1904774
000190 de 6f de c0 17 f1 de c0 2a 4a e8 c0 0e 00 e1 c0
       -6.9511557 -6.96693 -7.259053 -7.0312567
0001a0 e8 c4 dd c0 6e 3b de c0 8c ea e0 c0 0a c2 dd c0
       -6.9302864 -6.9447546 -7.028631 -6.9299364
0001b0 fc a2 df c0 43 ee dd c0 d4 94 dd c0 52 92 e3 c0
       -6.9886456 -6.9353347 -6.9244175 -7.1116114
0001c0 b3 29 e2 c0 e1 41 dd c0 66 e8 dc c0 a7 a1 e5 c0
       -7.06759 -6.914292 -6.903369 -7.175983
0001d0 4b db e2 c0 06 6a e5 c0 3f df e0 c0 4a 11 e2 c0
       -7.089269 -7.1691923 -7.0272517 -7.0646105
0001e0 67 c2 de c0 3c 57 e1 c0 08 e2 e2 c0 03 a9 de c0
       -6.9612308 -7.0418987 -7.0900917 -6.9581313
0001f0 ba 70 e2 c0 42 21 df c0 6f 93 e5 c0 91 e0 e7 c0
       -7.0762606 -6.97281 -7.1742473 -7.246163
000200 18 3f e3 c0 84 24 df c0 60 ec e1 c0 fa 08 df c0
       -7.101452 -6.9732075 -7.0601044 -6.969846
000210 ad 15 de c0 dd 5a dd c0 e6 4b df c0 4d f2 dd c0
       -6.940146 -6.9173417 -6.978015 -6.9358277
000220 6d 37 e0 c0 cd ab dd c0 c7 1e e0 c0 f9 f1 dd c0
       -7.006766 -6.927222 -7.003757 -6.9357877
000230 de 99 dd c0 90 2b e4 c0 54 6d e1 c0 2d 47 dc c0
       -6.9250326 -7.1303177 -7.0445957 -6.8836884
000240 5f b5 e0 c0 99 20 e7 c0 31 c0 dd c0 59 28 e6 c0
       -7.02214 -7.222729 -6.929711 -7.1924253
000250 d0 f2 dc c0 b3 f7 e3 c0 3b 25 de c0 81 79 de c0
       -6.90464 -7.1239867 -6.9420447 -6.952332
000260 82 0a dc c0 ec a1 e4 c0 b8 40 da c0 c3 29 e5 c0
       -6.8762827 -7.144766 -6.8204 -7.161348
000270 29 66 d9 c0 5a 93 e1 c0 f9 98 df c0 56 cb dd c0
       -6.7937207 -7.0492373 -6.9874234 -6.9310713
000280 6f 69 dd c0 c9 5b df c0 85 45 e3 c0 0a e7 dd c0
       -6.9191203 -6.9799542 -7.1022363 -6.934453
000290 5d a4 e2 c0 24 e3 df c0 95 25 e0 c0 27 01 d7 c0
       -7.082564 -6.996477 -7.0045877 -6.7188907
0002a0 12 cb da c0 95 e1 d9 c0 20 32 e3 c0 cf ab df c0
       -6.837289 -6.808787 -7.099869 -6.9897227
0002b0 48 11 e1 c0 64 f6 dc c0 ad 62 de c0 15 a0 da c0
       -7.0333595 -6.905077 -6.9495454 -6.8320413
0002c0 1c 87 e2 c0 af c0 e0 c0 0f c5 e0 c0 4d 55 e0 c0
       -7.078993 -7.023521 -7.024055 -7.0104127
0002d0 a7 31 e1 c0 c2 ba df c0 c0 0f e7 c0 8d 35 e4 c0
       -7.037311 -6.9915476 -7.2206726 -7.131537
0002e0 da e9 e1 c0 c4 e5 e2 c0 83 cb de c0 b3 e6 e5 c0
       -7.0597963 -7.0905476 -6.9623427 -7.1844115
0002f0 94 ad df c0 77 89 e0 c0 2c 2b e0 c0 49 1d e0 c0
       -6.9899387 -7.0167804 -7.00527 -7.003575
000300 46 f0 dd c0 63 0d d9 c0 8e 79 e2 c0 e8 38 e2 c0
       -6.9355803 -6.782884 -7.077338 -7.0694466
000310 f1 0e de c0 d1 a7 dc c0 4a 28 e1 c0 81 0a de c0
       -6.939324 -6.8954854 -7.036168 -6.938782
000320 6c 5f de c0 be 61 e0 c0 88 df db c0 50 fd de c0
       -6.949148 -7.0119314 -6.8710365 -6.968422
000330 dc 33 dd c0 1c 25 df c0 7a a9 dd c0 77 8c e6 c0
       -6.9125805 -6.97328 -6.926938 -7.2046466
000340 55 5f e1 c0 16 ee e1 c0 e1 61 df c0 4b 8d e0 c0
       -7.042887 -7.060313 -6.980698 -7.0172477
000350 7a a7 e1 c0 48 8b de c0 35 9f e0 c0 01 8c da c0
       -7.051694 -6.954502 -7.0194345 -6.8295903
000360 38 f8 d9 c0 08 e3 e0 c0 3b d4 d9 c0 6d ba e2 c0
       -6.81155 -7.027714 -6.807157 -7.085257
000370 bf 1b df c0 37 76 db c0 fd 5d e0 c0 0b 8f dc c0
       -6.972137 -6.8581805 -7.011473 -6.8924613
000380 09 fe e2 c0 2e 15 de c0 42 78 dc c0 93 42 e2 c0
       -7.09351 -6.9400854 -6.88968 -7.0706267
000390 83 05 e0 c0 96 b3 e4 c0 28 12 dd c0 07 79 e4 c0
       -7.000673 -7.146922 -6.9084663 -7.139774
0003a0 e1 2f da c0 b7 f2 dd c0 44 5d dc c0 8a a1 db c0
       -6.8183446 -6.9358783 -6.886385 -6.863469
0003b0 62 c4 e3 c0 9e 26 df c0 d7 ce da c0 f8 9b e1 c0
       -7.1177225 -6.973464 -6.837749 -7.050289
0003c0 6a a0 df c0 60 24 dd c0 d3 0a df c0 30 60 e0 c0
       -6.988332 -6.9106903 -6.9700713 -7.0117416
0003d0 6a 8d e5 c0 c6 dd df c0 45 fa e1 c0 b0 8e e6 c0
       -7.1735125 -6.995822 -7.0618005 -7.204918
0003e0 ca 12 de c0 d7 97 e1 c0 d6 00 dd c0 5e 6f db c0
       -6.9397936 -7.049785 -6.906352 -6.8573446
0003f0 43 a7 e0 c0 c7 fb dd c0 fb cc e3 c0 de 78 df c0
       -7.0204177 -6.9369845 -7.118772 -6.9835043

fc2.bias_mu f4 [32]
000000 6f a9 94 3c 7e 05 cc 3d 6d 06 32 be e9 6a 27 3c
       0.018147198 0.09961985 -0.17385264 0.01021836
000010 96 b3 05 3d 12 a7 58 3e 51 1f b6 bb 66 bf 98 bb
       0.03264197 0.21157482 -0.0055579324 -0.0046614883
000020 77 3e 88 ba 4a 4f d0 3d e0 b3 6c bb ba 48 2f 3e
       -0.0010394593 0.10171373 -0.0036117956 0.17117587
000030 c9 ad 83 3e c6 a3 9f 3b fc 7b 4c 3e 7b 7f 18 3e
       0.25718525 0.0048718182 0.19969171 0.1489238
000040 6e 2f 3c bb bf 9c 17 3e 9c f2 54 bc 89 a4 2b 3d
       -0.0028714794 0.14805888 -0.012997296 0.04190496
000050 0d 3e 9a 3e b3 6f 07 3e 6b 90 60 bb a0 9e 90 3b
       0.30125466 0.13226204 -0.0034265767 0.004413441
000060 d3 99 ce 3c 37 bd 7d 3d 2e 88 18 be a6 b1 85 be
       0.025219833 0.061948027 -0.14895698 -0.26112098
000070 ca 7e 6f 3e 73 d0 da 3d bf de 90 bd d7 3e a7 bd
       0.2338821 0.1068429 -0.070737354 -0.081662826

fc2.bias_rho f4 [32]
000000 0e 47 d7 c0 9b 1c df c0 f1 24 dd c0 6e 95 e1 c0
       -6.7274237 -6.972242 -6.9107594 -7.049491
000010 17 f0 dd c0 6a f6 dd c0 69 e3 db c0 ef b9 dd c0
       -6.935558 -6.93633 -6.87151 -6.928947
000020 46 42 e0 c0 86 86 dc c0 07 b7 e5 c0 b5 f8 dc c0
       -7.00809 -6.8914213 -7.178592 -6.9053597
000030 2d e1 e3 c0 ca e7 e1 c0 04 e0 e5 c0 0b 5b dc c0
       -7.1212373 -7.0595446 -7.1835957 -6.8861136
000040 bd 9a e3 c0 39 c3 e2 c0 72 12 e1 c0 e4 47 e3 c0
       -7.112639 -7.086331 -7.0335016 -7.1025257
000050 27 09 dd c0 de da db c0 cd f1 e2 c0 5d d1 de c0
       -6.907367 -6.870467 -7.0920167 -6.963057
000060 b9 a6 e0 c0 d1 11 e2 c0 92 54 e0 c0 74 04 df c0
       -7.020352 -7.064675 -7.0103235 -6.9692936
000070 ab dd e2 c0 0f b0 e0 c0 1c e7 dc c0 a9 a9 de c0
       -7.089559 -7.0214915 -6.9032116 -6.9582105
