CriticalStressOutput/bnn_model_classifier.pth (torch, 5578 bytes, 6 tensors)

fc1.weight f4 [32, 3]
0	0xbf89fe1f	-1.0780677
1	0x3e3e316e	0.18573543
2	0x3dd64ba8	0.10463649
3	0x3f145f3e	0.5795783
4	0x3f2a5178	0.6653056
5	0xbe349673	-0.17635517
6	0xbf814219	-1.0098296
7	0x3e95d4e3	0.29263982
8	0xbf10b359	-0.5652366
9	0xbf61ce2a	-0.88205206
10	0xbdaf6ed6	-0.08566062
11	0xbc15ca5b	-0.009142484
12	0x3f915e92	1.1356986
13	0xbf66e391	-0.9019099
14	0x3b5b7e8b	0.0033492174
15	0x3e097952	0.13425186
16	0xbdaccca4	-0.084374696
17	0xbf3291b0	-0.6975355
18	0x3f570824	0.83996797
19	0x3f0de28f	0.55423826
20	0x3dc03c6f	0.09386527
21	0x3f513f14	0.81736875
22	0x3da5865d	0.080822684
23	0x3f5eed79	0.87081105
24	0x3ee2fd5f	0.44333932
25	0x3f9e4466	1.2364624
26	0x3f384dfb	0.7199399
27	0xbf2d706f	-0.67749685
28	0xbf884444	-1.0645833
29	0x3e62ea3f	0.2215967
30	0xbf2c5986	-0.673241
31	0xbf1c1186	-0.6096424
32	0x3d3eba5b	0.04656444
33	0xbf635d4c	-0.88814235
34	0xbe4430d2	-0.19159248
35	0xbe288cb5	-0.16459925
36	0x3f994337	1.1973637
37	0xbf84dfd9	-1.0380813
38	0x3bd2ee98	0.006437134
39	0xbe53eec6	-0.20696554
40	0xbf23bea4	-0.6396277
41	0xbee54a46	-0.4478323
42	0xbf21346c	-0.62970614
43	0x3e89e9fb	0.26936325
44	0x3e109a95	0.14121468
45	0xbf427021	-0.75952345
46	0x3f4a4ae4	0.79020524
47	0x3d88aca4	0.066735536
48	0x3d95ee31	0.07320822
49	0xbf5b0e7f	-0.85568994
50	0x3f06d140	0.5266304
51	0xbd3bf5ae	-0.045888595
52	0xbe619e8c	-0.22033137
53	0xbf204d8b	-0.6261832
54	0x3f37a57f	0.717369
55	0xbf754fdc	-0.9582498
56	0x3d81971c	0.0632765
57	0xbf11e412	-0.5698863
58	0x3eae82c0	0.3408413
59	0x3d24231f	0.040072557
60	0xbe9d6830	-0.3074355
61	0xbd67492e	-0.056466274
62	0xbeede5ab	-0.46464285
63	0xbf33c125	-0.7021659
64	0xbd917831	-0.07103003
65	0xbc1c84a5	-0.009553109
66	0x3cdc6726	0.026904654
67	0xbed2f18c	-0.4119991
68	0xbf30ef6e	-0.6911534
69	0xbf092293	-0.5356838
70	0xbe7aa2fc	-0.24476236
71	0xbf21a615	-0.63144046
72	0x3e9f9517	0.31168434
73	0xbe8f4de0	-0.279891
74	0x3f8facc7	1.1224602
75	0xbf6039da	-0.87588274
76	0xbe22a5a0	-0.15883493
77	0x3a8c189d	0.0010688488
78	0x3dd6d2af	0.104894035
79	0x3f55ca72	0.8351203
80	0x3f20ebfa	0.6286007
81	0x3f55cf2b	0.8351924
82	0xbf4d3204	-0.8015444
83	0xbd52bdbd	-0.05145048
84	0x3f6347ce	0.8878144
85	0xbf03aad7	-0.51432556
86	0x3d86063b	0.06544157
87	0x3ef3e3df	0.4763479
88	0xbf67011f	-0.90236086
89	0x3f08c392	0.53423417
90	0x3f42eca5	0.7614234
91	0x3f86bfe9	1.0527316
92	0xbe578ea3	-0.21050505
93	0xbe3202fa	-0.17383948
94	0x3c2f8e88	0.010715134
95	0xbf344516	-0.70417917

fc1.bias f4 [32]
0	0xbdc93d5b	-0.09826156
1	0x3ebfa0ff	0.37427518
2	0xbedc1fb5	-0.4299294
3	0xbf27f8f9	-0.6561428
4	0xbe4ce5ec	-0.20009583
5	0xbde9376f	-0.11387526
6	0x3d67bd18	0.05657682
7	0xbdddf952	-0.1083857
8	0xbd808b20	-0.06276536
9	0xbf1c5a8a	-0.6107565
10	0x3eaffee1	0.34374145
11	0x3e427909	0.18991484
12	0xbea1ef2a	-0.3162778
13	0x3f013277	0.5046763
14	0x3f6952af	0.9114179
15	0x3e0a9ff9	0.13537587
16	0x3ec9962a	0.3937238
17	0x3d4ee9c0	0.05051589
18	0x3eab35ee	0.33439583
19	0x3f56ca1a	0.8390213
20	0x3e54d5e5	0.2078472
21	0xbf072ccb	-0.52802724
22	0x3e73f236	0.23822865
23	0xbf3d1683	-0.73862475
24	0xbc721878	-0.014776342
25	0xbf271525	-0.6526664
26	0xbde82ee1	-0.113370664
27	0xbe57df4a	-0.21081272
28	0x3f0d520e	0.5520333
29	0xbf1fade9	-0.6237474
30	0xbe68ccdb	-0.22734396
31	0xbee7e0e1	-0.45288756

fc2.weight f4 [16, 32]
0	0xbcf56a79	-0.029957997
1	0x3e984b11	0.2974477
2	0xbdf9d9c1	-0.121997364
3	0x3f0c2137	0.5473818
4	0x3e1ab441	0.15107824
5	0x3d22b42c	0.039722607
6	0x3ed269a5	0.41096225
7	0x3f0e57ca	0.55602705
8	0xbfa00b5b	-1.2503465
9	0x3f9d55ce	1.229181
10	0x3e0c52a8	0.13703406
11	0x3e36a7bb	0.17837422
12	0x3cb6578c	0.022258542
13	0xbd911115	-0.07083336
14	0x3ddb4182	0.10705854
15	0xbc8dc4c3	-0.017305737
16	0xbd70e496	-0.058811747
17	0xbca4a599	-0.020098494
18	0x3e01ded6	0.12682661
19	0xbd1adb5a	-0.037806846
20	0xbd5559d7	-0.05208763
21	0x3f3cd461	0.73761564
22	0xbd48fcf6	-0.049069367
23	0x3e8e6409	0.27810696
24	0x3ec8fbf7	0.39254734
25	0x3f36eb86	0.7145313
26	0xbf6d111e	-0.92604244
27	0xbe9d1afe	-0.30684656
28	0x3e9640b1	0.2934623
29	0xbf78454a	-0.96980727
30	0xbe1f61f8	-0.15564716
31	0x3d4e9ec6	0.050444387
32	0x3d781c39	0.06057379
33	0x3e2cec19	0.16886939
34	0xbe70e660	-0.23525381
35	0xbf2cd7ad	-0.67516595
36	0x3e5c99ce	0.21543047
37	0xbe62db21	-0.22153904
38	0x3e5b9fe3	0.2144771
39	0x3e453b7c	0.19260973
40	0x3d990c61	0.07473064
41	0x400e06d2	2.2191663
42	0xbecec3cc	-0.40383756
43	0x3f05696d	0.5211399
44	0x3dc32350	0.0952822
45	0x3d7ea47a	0.062168576
46	0x3e514cb3	0.20439415
47	0x3df20248	0.11816841
48	0xbe0e8062	-0.13916162
49	0xbe83e023	-0.2575694
50	0xbcad420a	-0.021149654
51	0x3de09f60	0.10967898
52	0xbeaa8cb0	-0.3331046
53	0xbefe1d45	-0.49631706
54	0xbe4a1f93	-0.19738607
55	0x3f0a297d	0.53969556
56	0xbcafddbd	-0.021468038
57	0xbf8088ff	-1.0041808
58	0xbe132826	-0.14370784
59	0x3ec0ff4b	0.37694773
60	0x3d9c4f7d	0.07632349
61	0xbdd19797	-0.102339916
62	0xbe125c84	-0.14293104
63	0xbed35084	-0.41272366
64	0xbf1c4942	-0.6104928
65	0xbcecef83	-0.028922802
66	0x3e980828	0.29693723
67	0x3f166d65	0.5876067
68	0xbf89d9e7	-1.0769624
69	0xbc63c15c	-0.013901081
70	0xbea749a8	-0.32673383
71	0x3eb026ec	0.34404695
72	0xbe088744	-0.1333285
73	0x3e1ac5d5	0.1511453
74	0xbcecdc0d	-0.028913522
75	0xbd8eb8d3	-0.06968846
76	0xbf97b41c	-1.185184
77	0x3e10a936	0.14127049
78	0x3e4afd15	0.19823106
79	0xbdc30ccc	-0.09523925
80	0x3cf3b88f	0.02975109
81	0x3d71ec2b	0.059063118
82	0x3e13cd48	0.14433777
83	0x3e5a5dff	0.21324919
84	0x3dc705b6	0.09717886
85	0x3f588bdb	0.845884
86	0xbd293f7b	-0.041320305
87	0x3e5ba71c	0.21450466
88	0x3e271530	0.16316676
89	0x3f48a866	0.78381956
90	0xbf0a4e64	-0.54025865
91	0xbfa4fd09	-1.288972
92	0x3e0012bc	0.12507147
93	0x3ded209f	0.115784876
94	0xbd93753b	-0.07200094
95	0x3e2247c2	0.15847686
96	0xbe8da95d	-0.27668276
97	0x3e206fa9	0.15667595
98	0xbf4bd934	-0.796283
99	0xbf80b4b8	-1.0055151
100	0x3c9c71ca	0.019097228
101	0xbe125156	-0.1428884
102	0x3e33469c	0.17507404
103	0xbcbd19cb	-0.023083588
104	0x3d8a671a	0.06757946
105	0x40167deb	2.3514354
106	0xbeb9e223	-0.3630534
107	0x3e8937d6	0.26800412
108	0x3dfb8e42	0.12282993
109	0x3e0bc5a0	0.13649607
110	0x3e8bc1c2	0.27296263
111	0x3e35d89c	0.17758411
112	0xbd7924b7	-0.06082603
113	0xbe664ad6	-0.22489485
114	0x3d5d37b8	0.054008216
115	0x3e9ffb71	0.31246522
116	0x3e1a7dad	0.15087004
117	0xbf34377e	-0.70397174
118	0x3cd2246e	0.025652137
119	0x3f1fff14	0.62498593
120	0xbe372885	-0.1788655
121	0xbf8fa416	-1.122195
122	0x3c75c7ec	0.015001278
123	0x3e100f76	0.14068398
124	0xbd995f93	-0.074889325
125	0x3e52d139	0.20587625
126	0xbe32978e	-0.17440626
127	0xbe8af3ee	-0.2713923
128	0xbf0c32bc	-0.54764915
129	0xbdb28c4c	-0.08718166
130	0x3ee5c6aa	0.4487813
131	0x3f97d844	1.1862874
132	0xbf83170d	-1.024141
133	0xbd804268	-0.06262666
134	0xbe62f88f	-0.2216513
135	0x3eafca94	0.34334242
136	0xbdfb8660	-0.12281489
137	0x3d187563	0.037221324
138	0xbe605943	-0.2190905
139	0xbe146c21	-0.14494373
140	0xbfa6fa40	-1.304512
141	0x3e350c29	0.1768042
142	0x3e865941	0.2623997
143	0xbca7aa73	-0.020467019
144	0x3d816f6f	0.063200824
145	0x3e2d669c	0.16933674
146	0x3cec5374	0.028848387
147	0x3e4931bd	0.1964788
148	0x3e776215	0.24158509
149	0x3f6beeef	0.9216146
150	0x3e48aa11	0.19596125
151	0x3ec1d111	0.37854818
152	0x3ecc4983	0.39899835
153	0x3f9562e4	1.1670804
154	0xbeb8235f	-0.35964486
155	0xbfb6f2a5	-1.4292799
156	0x3e1c7ae2	0.15281251
157	0x3e8f16c3	0.27947053
158	0xbe531542	-0.20613578
159	0x3ebdc2ba	0.37062627
160	0xbe11e530	-0.14247584
161	0x3ec97eba	0.39354497
162	0xbe49c2e0	-0.19703245
163	0x3efdd285	0.49574676
164	0xbf69d160	-0.91335106
165	0xbd521c3a	-0.05129645
166	0xbf25ae00	-0.6471863
167	0xbef23b9b	-0.473111
168	0xbf86a53b	-1.0519174
169	0x3f003ba0	0.5009098
170	0xbc08b682	-0.0083442945
171	0xbe112524	-0.14174324
172	0xbf749dfc	-0.95553565
173	0x3d01ad98	0.031659693
174	0x3cc0ae7c	0.0235207
175	0xbdce2c33	-0.10067024
176	0x3eb08b32	0.34481198
177	0xbc8ed6da	-0.017436434
178	0x3ec3d204	0.38246167
179	0x3e26b27a	0.16279021
180	0x3e02df0d	0.127804
181	0x3f5690d9	0.8381477
182	0xbdcbaf13	-0.09945502
183	0x3ec3756c	0.38175523
184	0x3e3fb332	0.18720701
185	0x3f5d2580	0.86385345
186	0xbf957315	-1.1675745
187	0xbf65d6e9	-0.8978105
188	0x3e642603	0.22280125
189	0xbeb511a7	-0.3536503
190	0xbdca8f83	-0.09890654
191	0xbd10e7ab	-0.035377186
192	0xbcf203ee	-0.02954289
193	0x3c118176	0.008880964
194	0xbcb0483b	-0.021518817
195	0xbf26a121	-0.65089613
196	0xbb60ed01	-0.0034320953
197	0xbd514c4e	-0.05109816
198	0xbd5672db	-0.05235563
199	0xbe5717e8	-0.21005213
200	0x3fc298ea	1.5202916
201	0xbf138fc0	-0.5764122
202	0xb9c4a765	-0.00037508752
203	0xbe2b209c	-0.16711658
204	0xbd8780f2	-0.06616391
205	0xbd0280b5	-0.031861026
206	0x3e8964d8	0.2683475
207	0x3e2ac341	0.16676046
208	0x3ebce109	0.36890438
209	0x3dc47bac	0.09593901
210	0x3cdd22c9	0.026994126
211	0x3e15700d	0.14593525
212	0x3dd9b084	0.10629371
213	0xbf5bc482	-0.8584672
214	0x3cfc1317	0.030770821
215	0xbe892b32	-0.26790768
216	0x3e8390d3	0.2569643
217	0xbf495e3e	-0.7865943
218	0x3f9c6707	1.2218941
219	0x3a8b8310	0.0010643918
220	0x3c164d59	0.009173715
221	0x3f9511b6	1.164603
222	0x3e1e4a5b	0.15458052
223	0xbd750538	-0.05981943
224	0xbe26c814	-0.16287261
225	0x3e33977a	0.17538252
226	0xbf295ced	-0.6615742
227	0xbc8dfa77	-0.017331345
228	0x3d85f315	0.06540505
229	0x3d8b2b80	0.06795406
230	0x3eb8b4a5	0.3607532
231	0xbe572c4b	-0.2101299
232	0x3e71f5cb	0.23628919
233	0xbfd0ac45	-1.6302572
234	0x3fa8546a	1.3150761
235	0xbf61a8ed	-0.88148385
236	0x3c8ea5d5	0.01741306
237	0xbd8223a7	-0.063544564
238	0xbfd85c1a	-1.6903107
239	0xbfba6d69	-1.4564639
240	0x3d93f2ff	0.07224082
241	0xbd2d8467	-0.042362597
242	0xbb802138	-0.00391021
243	0xbfa8029a	-1.3125794
244	0xbd522e95	-0.051313955
245	0x3d8d3213	0.068943165
246	0xba61cb41	-0.0008613356
247	0xbf39f2ae	-0.72635925
248	0xbfb221fc	-1.3916621
249	0x3e7568e7	0.23965798
250	0xbfab296b	-1.3372015
251	0x3e0310ba	0.1279935
252	0xba817327	-0.0009876237
253	0xbf80a029	-1.0048877
254	0x3f07f489	0.53107506
255	0xbdd629b8	-0.10457176

fc2.bias f4 [16]
0	0xbd54d449	-0.051960263
1	0x3da3a305	0.07990078
2	0x3ea44912	0.32086998
3	0x3de05ef3	0.1095561
4	0x3d4eaca1	0.0504576
5	0x3cb65df3	0.022261595
6	0x3d9b4c88	0.075829566
7	0x3e579b32	0.21055296
8	0x3e78ce50	0.24297452
9	0x3ddb312f	0.107027404
10	0xbd77ecff	-0.06052875
11	0xbe56cb52	-0.20975998
12	0x3e7fb076	0.24969658
13	0xbc15a98e	-0.009134663
14	0x3cce923a	0.02521621
15	0xbec7cd77	-0.39023945

fc3.weight f4 [3, 16]
0	0x3f02f802	0.5115968
1	0x3d631a90	0.055445254
2	0x3f30e85a	0.6910454
3	0xbe68c4ff	-0.22731398
4	0x3edaed37	0.42759106
5	0x3f9b8a89	1.2151653
6	0xbf955d93	-1.1669182
7	0x3f8c28dd	1.094997
8	0xbfb8f037	-1.4448308
9	0xbf6e36cb	-0.9305236
10	0x3ee36820	0.4441538
11	0xbf20f3d1	-0.62872034
12	0x3f6b2cb5	0.9186509
13	0x3f53a340	0.82670975
14	0xbf0dd286	-0.5539936
15	0x3ee266e7	0.44219133
16	0xbf880fdb	-1.0629839
17	0xbf52c0c7	-0.82325405
18	0x3d9fe5bb	0.078074895
19	0xbf4cf162	-0.8005582
20	0x3e618a96	0.22025523
21	0xbfa55a19	-1.2918121
22	0x3e85363f	0.2601795
23	0x3f1154cd	0.5677002
24	0x3e49428e	0.19654295
25	0x3e4e76cc	0.20162505
26	0x3ed16b7b	0.40902314
27	0x3f09bff4	0.5380852
28	0x3f0c4eba	0.5480763
29	0xbf58a0aa	-0.84620154
30	0x3f84f2c9	1.0386592
31	0x3e9ea19f	0.30982682
32	0x3e4948cf	0.1965668
33	0x3f0b0b35	0.54313976
34	0xbfa300a8	-1.2734575
35	0x3f3177d8	0.6932349
36	0xbfc18e44	-1.5121541
37	0xbf04f91c	-0.5194261
38	0x3ec86013	0.391358
39	0xbfcb6253	-1.5889381
40	0x3f373807	0.71569866
41	0x3f00eee4	0.5036452
42	0xbf90f1dc	-1.132381
43	0xbeabed0a	-0.33579284
44	0xbfc1ce92	-1.5141165
45	0xbe37b315	-0.17939408
46	0xbf242e51	-0.64133173
47	0xbfdc9111	-1.7231771

fc3.bias f4 [3]
0	0xbebc897c	-0.36823642
1	0xbee55797	-0.44793388
2	0x3f14f79f	0.5819034
