ModulusOutput/ann_trained.pth (torch, 14768 bytes, 8 tensors)

fc1.weight f4 [64, 3]
0	0x3ea1d58e	0.31608242
1	0xbe7384cc	-0.23781127
2	0xbde7e2d3	-0.1132256
3	0x3eae9502	0.3409806
4	0x3f0566e0	0.521101
5	0xbf0ef64a	-0.5584456
6	0x3f2e1c43	0.68011874
7	0x3e7efd8b	0.24901406
8	0xbde212d7	-0.1103875
9	0x3f0b69ea	0.5445849
10	0xbe3ccd1f	-0.18437622
11	0xbe9f6fd7	-0.31140015
12	0xbed9213b	-0.42408165
13	0xbe8b9166	-0.27259368
14	0xbe8d259a	-0.2756775
15	0x3f198a5a	0.5997673
16	0x3d294f7f	0.04133558
17	0xbe566711	-0.20937754
18	0x3ead25d7	0.33817932
19	0xbf078cd9	-0.5294929
20	0xbeda296b	-0.42609724
21	0xbeb444b6	-0.35208672
22	0x3eb5ba0c	0.35493505
23	0x3e91606f	0.28393885
24	0xbb9d9bf3	-0.0048098504
25	0xbef1b7da	-0.4721058
26	0x3eb02f0c	0.34410894
27	0xbe04129d	-0.12897725
28	0xbe6821c6	-0.22669134
29	0x3f28912d	0.6584652
30	0xbe5f7756	-0.21822867
31	0x3e8d3847	0.27582
32	0xbefc405c	-0.49267852
33	0xbf0bace2	-0.54560673
34	0xbd0555c0	-0.03255248
35	0xbdd52492	-0.10407366
36	0xbeb2bc04	-0.3490907
37	0x3f116e73	0.5680916
38	0x3ed0268a	0.40654403
39	0x3e8af402	0.27139288
40	0xbf35cf0b	-0.7101905
41	0x3d0fdd96	0.03512343
42	0x3f0bd780	0.546257
43	0xbe2025cc	-0.15639418
44	0x3e6bc6c5	0.23025043
45	0x3f079f7f	0.52977747
46	0x3ef56164	0.47925866
47	0x3e0a9c53	0.13536195
48	0xbeedc859	-0.46441916
49	0x3eb3ea81	0.3513985
50	0x3f0e86d4	0.5567448
51	0xbea40dc3	-0.3204175
52	0x3f310164	0.69142747
53	0x3e7fa74f	0.24966167
54	0xbeee6d9b	-0.46567997
55	0x3efbb749	0.49163273
56	0xbda179e6	-0.078845784
57	0x3f055cb2	0.52094567
58	0xbb9eea06	-0.004849675
59	0x3dd0513e	0.10171746
60	0x3f3610a7	0.7111916
61	0xbe955975	-0.29169813
62	0xbe90644a	-0.28201514
63	0x3f10c21f	0.56546205
64	0x3cc1d5d5	0.023661533
65	0x3ec7b79c	0.3900727
66	0x3f1a5285	0.60282165
67	0x3e5b059e	0.21388862
68	0xbdccc481	-0.09998418
69	0xbe2cbec3	-0.16869645
70	0x3f008e10	0.5021677
71	0x3f1bf57d	0.6092146
72	0xbe4d7cd7	-0.20067154
73	0xbe8f2eb1	-0.2796531
74	0xbeab6db5	-0.33482137
75	0x3e9e63d4	0.30935538
76	0x3ef78add	0.48348132
77	0x3e6dddd8	0.23229158
78	0x3f30de94	0.6908963
79	0x3edd5e06	0.43235797
80	0xbe9596c8	-0.292166
81	0x3f17b073	0.59253615
82	0x3d883a40	0.06651735
83	0x3ead8393	0.33889446
84	0xbf1db9e4	-0.6161177
85	0xbe9d42f6	-0.3071515
86	0x3f0205af	0.5078992
87	0x3f0c0d0f	0.54707426
88	0x3e447802	0.19186404
89	0xbdef9305	-0.116979636
90	0x3e6b000c	0.22949237
91	0x3ed1fb4c	0.41012037
92	0x3e861765	0.26189724
93	0x3d479b29	0.048731957
94	0x3dfbc1f2	0.122928515
95	0xbf1f15e3	-0.6214277
96	0x3ebf1e76	0.37327927
97	0xbd8260b6	-0.063661024
98	0xbe851703	-0.2599412
99	0xbf22325e	-0.63358104
100	0x3e3399ba	0.17539111
101	0x3e285a7c	0.16440767
102	0x3f1b3710	0.60630894
103	0xbead32e1	-0.3382788
104	0xbe99ad37	-0.30014965
105	0x3f1c51af	0.6106214
106	0x3eaf0e3b	0.34190544
107	0x3e1fab51	0.15592696
108	0xbf04841b	-0.51764077
109	0xbe20a66a	-0.15688482
110	0xbe865889	-0.26239422
111	0x3f1c796d	0.6112278
112	0x3ed2086b	0.41022047
113	0x3e84b996	0.2592284
114	0xbea708a5	-0.32623783
115	0xbea8ce38	-0.32969832
116	0xbe273e58	-0.16332376
117	0xbe8fdb6e	-0.280971
118	0xbf01e2d1	-0.5073672
119	0xbd83f3a8	-0.06442958
120	0xbd903aec	-0.070424885
121	0x3e0dd6a0	0.13851404
122	0x3f0f4066	0.5595764
123	0x3e3465fa	0.17617026
124	0xbca76f4e	-0.020438816
125	0x3ef38549	0.47562626
126	0x3f0a09f8	0.5392146
127	0x3f138a77	0.57633156
128	0xbeb09217	-0.34486458
129	0xbee80cf4	-0.45322382
130	0xbeee8b96	-0.4659087
131	0xbf155f0b	-0.5834815
132	0x3c5de53d	0.013543424
133	0x3a935e97	0.00112434
134	0xbefcec1a	-0.4939888
135	0x3e6166cf	0.22011875
136	0x3f16fc66	0.5897888
137	0x3e2b8cdc	0.16752952
138	0x3e59f68e	0.2128546
139	0x3f2778b4	0.65418553
140	0x3ec5e2ee	0.38649696
141	0xbf05fc65	-0.5233825
142	0xbe08e58d	-0.13368817
143	0x3ee54361	0.4477797
144	0xbdd6518d	-0.10464773
145	0x3f29c99b	0.6632325
146	0x3e6a1e4c	0.2286312
147	0x3e18e2ce	0.14930269
148	0x3eb8b753	0.36077365
149	0x3efea6eb	0.49736723
150	0x3e67bd2e	0.2263076
151	0x3e70f301	0.23530199
152	0x3e3b3a77	0.18284021
153	0xbf2b9206	-0.6701969
154	0x3e9f207d	0.31079474
155	0xb9c35914	-0.00037259667
156	0x3e8b22f8	0.27175117
157	0x3efaec0a	0.4900821
158	0x3ebfa09a	0.37427217
159	0xbf07a6b3	-0.5298874
160	0x3edd51fa	0.43226606
161	0x3da664ac	0.081246704
162	0x3f1957f1	0.5989981
163	0xbeff6d09	-0.49887875
164	0x3db6aa1e	0.08919166
165	0xbf081b04	-0.5316622
166	0xbe045011	-0.12921168
167	0xbec8dc98	-0.392308
168	0xbe9d340e	-0.30703777
169	0x3eda0a3c	0.42585933
170	0x3e874e87	0.264271
171	0x3d888aea	0.06667121
172	0x3ee8dc40	0.45480537
173	0xbf0be4a8	-0.54645777
174	0xbb9e4beb	-0.0048308275
175	0xbf583c01	-0.8446656
176	0xbd1f27c3	-0.03885628
177	0x3f143263	0.57889384
178	0xbe1745c6	-0.1477271
179	0xbe821b2d	-0.25411358
180	0xbe48377b	-0.19552414
181	0x3e868372	0.2627216
182	0xbeac3e02	-0.33641058
183	0xbf3061a0	-0.68898964
184	0x3e4138f6	0.18869385
185	0x3eaad133	0.3336273
186	0x3d8f4e71	0.069973834
187	0xbcb4e050	-0.022079617
188	0xbf3af389	-0.73027855
189	0xbf076d2f	-0.52900976
190	0xbd4796ad	-0.04872768
191	0xbdbf2c07	-0.093345694

fc1.bias f4 [64]
0	0x3e449de9	0.19200863
1	0xbe8aed40	-0.27134132
2	0x3f0f58fa	0.5599514
3	0x3e081277	0.13288294
4	0xbea6ba9f	-0.32564256
5	0xbebc1a2c	-0.36738718
6	0xbe9afcd2	-0.30271012
7	0x3bed4b82	0.0072416672
8	0xbda934c5	-0.08262018
9	0x3ea131c4	0.3148328
10	0x3d07d865	0.033165354
11	0x3df0afbb	0.11752268
12	0x3ec145a4	0.37748444
13	0xbeec5c4c	-0.46164167
14	0x3dbee266	0.09320526
15	0xbebf9b59	-0.37423208
16	0xbe5aa4fb	-0.21351998
17	0x3eeb59d4	0.4596697
18	0xbdf3386c	-0.11875996
19	0xbccaa724	-0.024737902
20	0x3d8ef6eb	0.069806896
21	0xbf040ede	-0.51585186
22	0x3d466295	0.04843386
23	0x3ee8ad60	0.45444775
24	0x3e316938	0.17325294
25	0xbe0139ef	-0.12619756
26	0x3e195f79	0.14977826
27	0x3d33385a	0.043754913
28	0x3eaa2c00	0.33236694
29	0x3e008eb9	0.12554444
30	0xbbc2f6a8	-0.005949814
31	0x3f1485e3	0.58016795
32	0x3dabea2f	0.08394276
33	0x3e4cb4f6	0.19990906
34	0x3ea755e4	0.32682717
35	0x3f0a3def	0.54000753
36	0xbee5a30f	-0.44850966
37	0xbe8309b8	-0.25593352
38	0x3eec21ac	0.4611944
39	0x3ee616e6	0.44939345
40	0xbdefce11	-0.11709226
41	0xbed20cf3	-0.41025504
42	0x3d56ab02	0.05240918
43	0x3eba6bcd	0.3641037
44	0xbe80927f	-0.25111768
45	0x3ea83e2d	0.32859936
46	0x3ea9695c	0.33088195
47	0xbec542f9	-0.3852766
48	0x3e078258	0.13233316
49	0x3f01e812	0.50744736
50	0x3ee2a94a	0.44269782
51	0x3e4d10e6	0.20025977
52	0x3e562f3f	0.2091646
53	0xbea558cf	-0.32294318
54	0xbe3c0cad	-0.1836421
55	0x3e8b418a	0.2719844
56	0x3f1202d0	0.5703554
57	0x3edc336b	0.4300798
58	0xbe2d974f	-0.16952251
59	0xbcff9e5b	-0.03120344
60	0x3e8126e4	0.25224984
61	0x3bcca09f	0.0062447335
62	0xbeab7c48	-0.33493257
63	0x3f0fa70d	0.56114274

fc2.weight f4 [32, 64]
0	0xbbb9d07f	-0.0056706066
1	0xbbb62af5	-0.00555932
2	0x3de0e72c	0.109815925
3	0x3c9af8ab	0.018917402
4	0x3d338bd0	0.043834507
5	0xbd8326c0	-0.06403875
6	0x3d445176	0.04792925
7	0xbd8197ae	-0.06327759
8	0xbc878e5f	-0.01654738
9	0xbe284dd6	-0.16435942
10	0xbdf6ee36	-0.12057154
11	0xbda22141	-0.07916499
12	0x3c520971	0.012819634
13	0xbe0709be	-0.1318731
14	0x3e17a0c8	0.14807427
15	0xbc44d300	-0.012013197
16	0x3c719779	0.014745587
17	0x3da364a4	0.0797818
18	0xbdde5df9	-0.108577676
19	0x3d25d39d	0.040485013
20	0x3d40f87e	0.04711198
21	0x3c832a66	0.016011428
22	0x3cc4eced	0.024038756
23	0xbdb56059	-0.088562675
24	0x3cd57093	0.026054656
25	0xba35e587	-0.0006938804
26	0x3e0f89b8	0.1401738
27	0xbd4ecf82	-0.050490864
28	0xbe2abc18	-0.16673315
29	0xbccdc1a9	-0.025116758
30	0x3e1db804	0.15402228
31	0x3e03f22e	0.12885353
32	0x3e513b2b	0.20432727
33	0xbe253362	-0.16132882
34	0x3e145338	0.1448487
35	0x3d886077	0.06659024
36	0xbd92d9e1	-0.07170463
37	0xbd1d2f83	-0.03837539
38	0xbccfa0f0	-0.025345296
39	0x3d6f4fb6	0.058425628
40	0x3d978bf2	0.07399739
41	0xbdc7b134	-0.09750596
42	0x3e34219b	0.17590944
43	0xbd500e4f	-0.050794896
44	0xbeba8cb0	-0.3643546
45	0x3e0ca8d6	0.13736281
46	0x3e01cf8c	0.12676829
47	0xbdf8ddb4	-0.121516615
48	0xbd9a3979	-0.07530493
49	0x3e0aa7bb	0.13540547
50	0x3d797538	0.060902804
51	0x3b8b0269	0.0042422307
52	0x3e2a0688	0.16604054
53	0x3ded7887	0.115952544
54	0x3d73d876	0.059532605
55	0xbbf1e825	-0.00738241
56	0xbc775934	-0.015096951
57	0x3d84ee9e	0.06490825
58	0xbb906e62	-0.00440769
59	0x3d30c9ed	0.04316132
60	0xbcbcb75a	-0.023036648
61	0x3cbee838	0.02330409
62	0xbdd48bdb	-0.10378238
63	0xbe2716e7	-0.1631733
64	0x3c3affd7	0.011413536
65	0xbd1e9974	-0.038720563
66	0x3e325e29	0.17418732
67	0x3da073fd	0.07834623
68	0xbdda22ef	-0.10651194
69	0xbe849fcf	-0.25903174
70	0x3cfcb116	0.03084616
71	0x3d21593e	0.03939175
72	0xbb9347fd	-0.0044946657
73	0x3db2b7e2	0.08726479
74	0xbd607412	-0.054798193
75	0xbbeda900	-0.0072528124
76	0xbd8c82d8	-0.06860894
77	0xbe6b81df	-0.2299876
78	0x3e237b52	0.15965012
79	0xbc9c7576	-0.019098978
80	0x3d769bbf	0.060207125
81	0x3df4c7c3	0.11952164
82	0x3c75a448	0.014992781
83	0xbd855ca4	-0.065118104
84	0xbdbdd99e	-0.09270023
85	0xbd73356e	-0.059377126
86	0xbd0eae46	-0.03483417
87	0x3d48cbdb	0.049022537
88	0xbe0c5548	-0.13704407
89	0x3ba240e2	0.0049515823
90	0x3db58023	0.08862331
91	0xbd512bbf	-0.05106711
92	0xbd98c902	-0.07460214
93	0x3da8efda	0.08248873
94	0x3dd0d92d	0.10197673
95	0x3e1d64bb	0.15370457
96	0x3e0d31b9	0.13788499
97	0xbe205201	-0.15656282
98	0x3d7656b1	0.06014127
99	0x3d661661	0.056173686
100	0x3d4f0223	0.050539147
101	0x3e307d2b	0.17235248
102	0x3b8c802a	0.0042877393
103	0xbd545a7e	-0.051844113
104	0xbda6d509	-0.08146102
105	0x3cf7037b	0.030153027
106	0xbd39c5f9	-0.045354817
107	0x3d194eff	0.037428852
108	0xbd115dc6	-0.03548982
109	0xbcf189c9	-0.029484646
110	0x3e2755f2	0.1634138
111	0xbd31e2f5	-0.043429334
112	0xbcddfd25	-0.027098248
113	0x3d98a7e4	0.074538976
114	0x3e35335d	0.17695375
115	0xbdbfdcdc	-0.093682975
116	0x3db8d0dc	0.09024212
117	0xbca46343	-0.020066863
118	0xbe1beca2	-0.15226987
119	0x3d22abf8	0.039714783
120	0x3b23ee2d	0.002501379
121	0xbd81dd13	-0.06340995
122	0xbe885e68	-0.26634526
123	0x3c292c17	0.010325453
124	0xbcd5fafe	-0.026120659
125	0xbde63993	-0.1124145
126	0xbe394a50	-0.18094754
127	0x3c1b94e4	0.0094959475
128	0xbe6de3e5	-0.23231466
129	0xbddea75c	-0.10871765
130	0xbe00a8cb	-0.1256439
131	0xbed59ad3	-0.41719684
132	0xbe0cf7eb	-0.13766448
133	0xbf205ad3	-0.62638587
134	0xbd7a9e09	-0.06118587
135	0x3db09e7e	0.0862398
136	0xbec8fc52	-0.39255005
137	0x3d464a79	0.048410866
138	0x3e0c91d4	0.13727504
139	0x3e36fbfc	0.17869562
140	0x3e5b0d9e	0.21391913
141	0xbe0b0d3f	-0.13579272
142	0xbdb45d14	-0.08806816
143	0x3e40e8f9	0.18838872
144	0x3d9e8976	0.07741062
145	0x3e33f204	0.1757279
146	0xbe436302	-0.19080737
147	0xbc6984bd	-0.014252839
148	0xbef722ea	-0.48268825
149	0x3e0995d6	0.13436064
150	0xbdca80d5	-0.09887854
151	0x3dfacb4c	0.12245807
152	0x3d627c84	0.05529453
153	0x3e3dea27	0.18546353
154	0x3d94e6b0	0.07270563
155	0x3d936742	0.07197429
156	0xbe8094df	-0.2511358
157	0xbd8f6180	-0.070010185
158	0xbb4b6337	-0.0031034478
159	0xbe91d6f7	-0.28484318
160	0xbec36a71	-0.38167146
161	0xba437c06	-0.00074571406
162	0xbe7495f6	-0.2388533
163	0xbdf3b993	-0.1190063
164	0xbec08b7d	-0.3760642
165	0x3d198da7	0.037488606
166	0x3d8b2268	0.06793672
167	0xbeafa80e	-0.34307903
168	0x3e2c1711	0.16805674
169	0x3e64662d	0.22304602
170	0xbdaafe6d	-0.08349309
171	0x3baf24f3	0.005344981
172	0x3e29797f	0.16550253
173	0x3d8639fd	0.06554029
174	0x3e0a91f4	0.13532239
175	0xbe39d108	-0.18146145
176	0x3e68d1bd	0.22736259
177	0xbb7f5f6c	-0.0038966788
178	0x3d33a6bc	0.043860182
179	0xbc813ad4	-0.015775122
180	0x3db2472f	0.087049834
181	0xbe1bf976	-0.1523188
182	0xbec77927	-0.3895962
183	0x3d3ff39e	0.04686319
184	0x3e17c1bc	0.14819998
185	0xbe0078f0	-0.12546134
186	0xbe9c0252	-0.3047052
187	0xbebe6f61	-0.3719435
188	0xbe9e5048	-0.30920625
189	0xbdcce291	-0.100041516
190	0xbc8d32cd	-0.017236138
191	0x3d5292a9	0.051409397
192	0x3e1c5696	0.15267405
193	0x3e5fadea	0.21843687
194	0x3e3e5431	0.18586804
195	0x3de88658	0.11353749
196	0x3e008c8b	0.12553613
197	0x3dd8bbdb	0.105827056
198	0xbd1e4c3f	-0.038646933
199	0x3ca4afd8	0.02010338
200	0x3cdfa4dc	0.02730029
201	0x3da908a6	0.08253603
202	0x3e254355	0.16138966
203	0x3c5cd795	0.013479133
204	0x3da04091	0.07824815
205	0xbd966002	-0.07342531
206	0xbcb19a82	-0.02168012
207	0xbdd389c5	-0.10329012
208	0xbca5ee21	-0.02025515
209	0xbd503c9e	-0.05083906
210	0x3e49d24f	0.19709133
211	0x3e08489f	0.13308953
212	0x3dba11cc	0.09085426
213	0x3d4f068a	0.050543346
214	0x3c65eea7	0.01403395
215	0xbdb3147c	-0.087441415
216	0x3e0d9357	0.13825737
217	0xbe033095	-0.12811501
218	0x3d80c6c4	0.062879115
219	0x3d393842	0.045219667
220	0x3d0a7099	0.033798788
221	0x3daa7aba	0.083241895
222	0xbe080051	-0.1328137
223	0x3d4dbe57	0.05023035
224	0x3dce45e6	0.10071926
225	0x3e2b136b	0.16706626
226	0x3e257f3b	0.16161816
227	0xbd737576	-0.05943819
228	0xbce8c7c2	-0.028415564
229	0xbde7587f	-0.11296176
230	0x3d9f32cc	0.077733606
231	0x3e1ad6d8	0.15121019
232	0xbdcea20e	-0.10089503
233	0x3dcd70d0	0.10031283
234	0x3e06372c	0.13106984
235	0x3ddb41a8	0.10705882
236	0xbca98391	-0.020692619
237	0x3c0e6c17	0.008692763
238	0x3d6496e7	0.055807974
239	0x3e551b4a	0.20811191
240	0xbde93d92	-0.11388697
241	0x3d81777a	0.063216165
242	0x3e2d847c	0.1694507
243	0x3dd3d018	0.10342425
244	0x3d480c53	0.04883988
245	0x3dab5b1c	0.08366987
246	0x3dd0e619	0.10200138
247	0x3dd58d6e	0.10427366
248	0x3dfd8a1b	0.12379857
249	0xbc802def	-0.015646903
250	0xbda9fa73	-0.082997225
251	0x3e8f4c7a	0.27988034
252	0xbbc747f2	-0.0060815746
253	0x3e0b753f	0.13618945
254	0xbd54c097	-0.05194148
255	0x3e21ef54	0.15813953

fc2.bias f4 [32]
0	0x3e24cdaa	0.1609408
1	0x3d6e7f24	0.05822672
2	0xbe086b9d	-0.13322301
3	0xbb57089d	-0.003281153
4	0xbd2d1dac	-0.042264625
5	0xbd1baddf	-0.038007613
6	0xbb0d4861	-0.0021558034
7	0xbcfc16fe	-0.030772682
8	0x3d918834	0.07106057
9	0xbc368485	-0.011139994
10	0x3d00771a	0.031363584
11	0xbd286e94	-0.04112108
12	0x3ddf0353	0.10889306
13	0xbdddf2d5	-0.10837332
14	0xbde3f0b4	-0.11129895
15	0xbd3b989f	-0.045799848
16	0xbd349d08	-0.04409507
17	0xbd9c9989	-0.07646472
18	0x3e1af64b	0.15133016
19	0x3dfbb36d	0.12290082
20	0x3d39926c	0.045305654
21	0xbe07fc11	-0.1327975
22	0x3d5aab2b	0.053385895
23	0xbcf79bb4	-0.030225612
24	0xbd58a6b0	-0.05289334
25	0xbd5b6883	-0.053566467
26	0x3dc79813	0.09745803
27	0xbdc1953c	-0.09452292
28	0x3dd56100	0.10418892
29	0x3e0b2176	0.13586983
30	0xbd325adb	-0.043543678
31	0x3c8551a3	0.016274279

fc3.weight f4 [16, 32]
0	0xbdaa7215	-0.08322541
1	0x3e3dfc67	0.18553315
2	0xbeb48140	-0.3525486
3	0x3dfa2121	0.1221335
4	0xbc7f1c19	-0.015570664
5	0x3cdd6563	0.027025884
6	0x3cb2fab2	0.021848056
7	0xbe3b5e11	-0.18297602
8	0x3dcfb734	0.10142365
9	0xbe81063c	-0.2520007
10	0x3ea3dbac	0.32003534
11	0xbd6d1b9e	-0.057887666
12	0x3e810757	0.25200912
13	0x3e04c28a	0.12964836
14	0xbdf7b9f6	-0.12096016
15	0x3d423ccd	0.047421265
16	0x3ce2aa14	0.02766899
17	0x3c86eb21	0.01646954
18	0x3e38a338	0.18031013
19	0x3eaea03d	0.34106627
20	0xbc7a3c6b	-0.015273194
21	0x3cbd866e	0.02313539
22	0x3de1954b	0.110148035
23	0x3e789506	0.24275598
24	0xbdcd166d	-0.10014043
25	0x3e87ee22	0.26548868
26	0x3e84ae58	0.25914264
27	0xbdbbe05e	-0.09173654
28	0xbe4ca7aa	-0.19985834
29	0x3dc854e2	0.09781815
30	0x3e2e9795	0.17050011
31	0xbd83d5d5	-0.064372696
32	0x3e197c1c	0.1498875
33	0x3e4cd17b	0.20001785
34	0x3e40c0e4	0.18823582
35	0xbe138fa4	-0.14410263
36	0xbe5935b5	-0.21211894
37	0x3d7564e3	0.059910666
38	0xbdde9bdd	-0.10869572
39	0x3e206f8c	0.15667552
40	0x3ca89bae	0.020582046
41	0x3efd2a7f	0.49446484
42	0xbe9416af	-0.28923556
43	0xbd2b6ab5	-0.04184981
44	0xbd8ef3e5	-0.06980113
45	0xbe4441a2	-0.19165662
46	0xbbf5c489	-0.0075002355
47	0x3e5a0361	0.21290351
48	0xbaa5e410	-0.0012656469
49	0x3d1f88ec	0.03894894
50	0xbd5bd7dd	-0.05367266
51	0xbed35456	-0.4127528
52	0x3e173442	0.14766029
53	0xbe11a8de	-0.14224574
54	0xbe7f76fc	-0.24947733
55	0x3b9846a4	0.004647093
56	0x3edc1d77	0.4299123
57	0xbeb8b2e3	-0.3607398
58	0xbbb69a8b	-0.005572622
59	0xbb93fc4c	-0.00451616
60	0x3ec292e1	0.38002685
61	0xbdcdea43	-0.100544475
62	0x3e3c5fed	0.18395968
63	0x3e55a193	0.20862417
64	0xbd39e0a4	-0.04538025
65	0xbeadce66	-0.33946532
66	0xbe116964	-0.1420036
67	0xbcb827c3	-0.022479897
68	0x3e895d82	0.26829153
69	0xbe358739	-0.17727365
70	0x3e565503	0.20930867
71	0x3e61f7fc	0.22067255
72	0x3e1db0ec	0.15399522
73	0xbe319a3a	-0.17343989
74	0xbebaf3a5	-0.3651401
75	0xbe952ce5	-0.29135814
76	0x3d869211	0.06570829
77	0xbd889a05	-0.06670002
78	0x3e026d41	0.1273699
79	0xbd35a818	-0.04434976
80	0xbe263ee4	-0.16234928
81	0x3d263ec3	0.040587198
82	0x3e6acbc9	0.229293
83	0xbde84270	-0.11340797
84	0xbef9c27e	-0.48781198
85	0xbe0b322b	-0.13593356
86	0xbe38f2a4	-0.1806131
87	0x3dcb58af	0.099290244
88	0x3e0b3801	0.13595583
89	0xbde2b9ef	-0.1107062
90	0x3dd6e21e	0.10492347
91	0xbe430fd6	-0.1904901
92	0x3db248da	0.087053016
93	0xbe4fef62	-0.20306161
94	0x3e5bf2df	0.21479367
95	0x3e75a273	0.2398775
96	0x3c28a99f	0.010294347
97	0xbdc44229	-0.095829315
98	0xbe058910	-0.13040566
99	0x3df108d2	0.117692605
100	0x3e9abd53	0.30222568
101	0x3df4c1b3	0.11951008
102	0x3df8293a	0.12117238
103	0xbc89e240	-0.016831517
104	0x3e487704	0.19576651
105	0xbdddded5	-0.108335175
106	0xbdd38685	-0.10328392
107	0x3cfc1999	0.030773925
108	0x3d81e4c9	0.063424654
109	0x3cbc3ade	0.022977289
110	0xbbc90874	-0.006135041
111	0x3db1f1ef	0.08688723
112	0x3e032259	0.12806071
113	0x3cfdfa4e	0.031003144
114	0xbe0c79c1	-0.1371832
115	0x3cee8587	0.029116405
116	0xbd55e8ab	-0.052223843
117	0x3dc04759	0.093886085
118	0xbdb82eb8	-0.08993286
119	0x3e12b48e	0.14326689
120	0x3d6631cd	0.056199837
121	0xbdba6428	-0.091011345
122	0x3d86433e	0.06555794
123	0xbe12dceb	-0.14342086
124	0x3dca7689	0.0988589
125	0xbe6e9fed	-0.23303194
126	0x3d8eab23	0.069662355
127	0x3ded7847	0.11595207
128	0xbe033a63	-0.12815242
129	0xbda266a1	-0.07929731
130	0x3e678293	0.22608404
131	0xbea23e71	-0.31688264
132	0xbe2cdd1f	-0.16881226
133	0x3db27a71	0.0871476
134	0xbe9f0932	-0.31061703
135	0xbd8fc8d3	-0.07020726
136	0xbea3878b	-0.3193935
137	0x3e326f28	0.17425215
138	0xbe403a26	-0.18772182
139	0x3df577a6	0.11985712
140	0x3bf3ff3b	0.0074461973
141	0x3dbdbf26	0.09264974
142	0xbd740192	-0.05957181
143	0x3e48995e	0.19589755
144	0x3df4c31f	0.11951279
145	0x3e23df09	0.1600305
146	0x3e4997b9	0.19686784
147	0xbdf75fcb	-0.12078818
148	0xbdc1e04a	-0.09466608
149	0x3d0ebd7c	0.034848675
150	0xbe39c14e	-0.18140146
151	0xbea12572	-0.3147388
152	0xbd81b360	-0.06333041
153	0x3d8d4b8e	0.068991765
154	0xbda05181	-0.07828046
155	0xbdedd8de	-0.1161363
156	0x3d4bd147	0.04976013
157	0x3dc98490	0.098397374
158	0x3e38d1cf	0.18048786
159	0xbe28a180	-0.16467857
160	0x3e255901	0.16147234
161	0x3e373419	0.17890967
162	0xbea1aeb8	-0.31578612
163	0x3e549aaa	0.20762125
164	0xbd653446	-0.055958055
165	0x3e87e7ab	0.26543936
166	0xbd636954	-0.05552037
167	0xbeaa6c4a	-0.33285743
168	0xbc8271f5	-0.01592348
169	0xbe4aa008	-0.1978761
170	0x3e96e76b	0.29473433
171	0x3e293f33	0.16528015
172	0x3e43a132	0.1910446
173	0x3df2c710	0.118543744
174	0xbd4d14cc	-0.05006866
175	0x3d50fe2b	0.051023643
176	0x3e5f1b74	0.21787816
177	0xbc9ae800	-0.018909454
178	0x3e146d0c	0.14494723
179	0x3e1a42c7	0.15064536
180	0x3da1a992	0.07893671
181	0x3e2567df	0.16152905
182	0x3ea563ce	0.32302707
183	0x3e810b10	0.25203753
184	0xbea954bb	-0.33072457
185	0x3d9a4fd0	0.07534754
186	0x3d25b434	0.04045506
187	0x3d792ec3	0.06083561
188	0x3d4cf16f	0.050034937
189	0xbe0e05da	-0.1386942
190	0xbd860318	-0.06543559
191	0xbece2333	-0.4026123
192	0x3e4342ce	0.19068453
193	0x3e284915	0.16434129
194	0x3dfb30a8	0.1226514
195	0x3b8aec7d	0.0042396174
196	0xbee5a894	-0.44855177
197	0xbca2109c	-0.01978331
198	0xbe835ac7	-0.25655195
199	0xbb092b1a	-0.0020930232
200	0xbd8a1f68	-0.067442715
201	0xbd5ec695	-0.0543886
202	0x3dde0b4f	0.10842001
203	0x3e2c2ea8	0.16814673
204	0xbdce5fe5	-0.10076884
205	0xbd536712	-0.051611967
206	0xbd864717	-0.06556528
207	0x3e085180	0.1331234
208	0x3da9e740	0.082960606
209	0x3bc5cf04	0.006036641
210	0x3b8a1f09	0.0042151255
211	0xbe2b9eb0	-0.16759753
212	0x3e0f9577	0.1402186
213	0x3dc8a736	0.09797518
214	0xbdaabece	-0.08337174
215	0xbe09f978	-0.13474071
216	0xbc824455	-0.015901724
217	0xbe41f03a	-0.18939295
218	0x3e0d8eec	0.13824052
219	0xbc6249c9	-0.013811537
220	0x3e55c2d2	0.208751
221	0x3d7aa039	0.061187956
222	0x3e6641e5	0.22486074
223	0xbe55dda8	-0.20885336
224	0xbdd761e0	-0.10516715
225	0xbe298576	-0.16554818
226	0x3cf54aa2	0.029942814
227	0x3e3fb22d	0.18720312
228	0x3cb9a0bd	0.022659654
229	0xbd869ff4	-0.065734774
230	0xbd3ef2b7	-0.04661819
231	0x3d804774	0.062636286
232	0x3c8370db	0.016045025
233	0x3df13ccc	0.11779174
234	0x3d1e1882	0.03859759
235	0x3d53ddbc	0.051725134
236	0x3e4ce81f	0.20010422
237	0xbdf49641	-0.11942721
238	0x3e451358	0.1924566
239	0xbe17e745	-0.14834316
240	0x3dead601	0.11466599
241	0xbd4430b2	-0.047898002
242	0x3dd4a3db	0.103828155
243	0xbdd138d0	-0.10215914
244	0x3dd780a9	0.10522587
245	0xbe2115d3	-0.15730982
246	0x3e04f33f	0.12983416
247	0xbccb8dc5	-0.024847874
248	0xbda4a728	-0.08039695
249	0x3e130b01	0.14359666
250	0xbdda0483	-0.10645392
251	0xbd62f29c	-0.05540715
252	0xbdb7b3cf	-0.08969843
253	0x3d5f9591	0.054585997
254	0xbe3d38fb	-0.18478768
255	0xbd066207	-0.03280833

fc3.bias f4 [16]
0	0x3e16c10a	0.14722076
1	0x3d47eb07	0.048808124
2	0xbe510780	-0.20413017
3	0xbe189a41	-0.14902593
4	0x3b338c48	0.0027396847
5	0x3dbd9bd8	0.092582405
6	0xbe030f53	-0.12798814
7	0x3e04e7b0	0.12979007
8	0x3d8ca95c	0.0686824
9	0x3e0cf9ce	0.13767168
10	0xbd4fad12	-0.050702162
11	0x3d3bebb1	0.04587907
12	0x3dce83ae	0.1008371
13	0xbd976929	-0.073931046
14	0x3dbb84fc	0.09156224
15	0x3de64a2d	0.11244617

out.weight f4 [2, 16]
0	0x3d866255	0.06561724
1	0xbc8e7478	-0.017389521
2	0x3ed890a4	0.42297852
3	0xbdc16091	-0.09442247
4	0x3df345a5	0.11878518
5	0x3eb3aa0a	0.35090667
6	0x3e95184b	0.29120097
7	0xbe141754	-0.14462024
8	0xbe29ab1b	-0.16569178
9	0x3e469c7f	0.19395636
10	0xbbea0bb3	-0.007142508
11	0xbdf8eee0	-0.12154937
12	0xbc711562	-0.014714571
13	0x3e91a897	0.28448936
14	0xbe958486	-0.2920267
15	0x3eaae23f	0.33375737
16	0xbe617021	-0.2201543
17	0x3e74841c	0.2387852
18	0xbebd89f7	-0.3701932
19	0xbe52e924	-0.20596749
20	0x3ebe39c2	0.3715344
21	0xbe9ab102	-0.3021317
22	0x3ea546cf	0.32280585
23	0xbdc332fe	-0.0953121
24	0x3eb63e98	0.3559463
25	0x3edba483	0.4289895
26	0xbee24c8e	-0.44199032
27	0x3e5e6dbf	0.21721552
28	0x3ebe9d8d	0.37229577
29	0x3e05e135	0.13074191
30	0x3dbec4be	0.09314869
31	0x3e3f9163	0.18707804

out.bias f4 [2]
0	0xbd23a386	-0.03995087
1	0xbe138a6c	-0.14408273
