models/bnn_model_classifier.pth (torch, 5578 bytes, 6 tensors)

fc1.weight f4 [32, 3]
00000000: 6ab9 4fbf df15 46be 2374 2b3c 9978 80bf
00000010: d2cd 4cbf a529 193c cd28 d53e 2ecc 553f
00000020: cade 1e3f cf89 9d3f f61e 8d3f 6400 0bbd
00000030: 9c7e c03e c61e 6e3f e306 c33e 95ed 1b3f
00000040: c690 103f 5926 763f 698c 243f 9e37 293e
00000050: a60f 2a3e 21b1 973e 2095 31bf 8c50 d2ba
00000060: e1f2 3c3f 8653 b0be 4ac7 e03e dc4a 2cbe
00000070: 1476 57bf 315f bfbe fe7c a3be 270a 6b3e
00000080: 87f8 5fbf ff96 9e3e f015 23bf 59dc d03e
00000090: e47c 273f ee07 163f b8e1 f8bc 9d4b 58bf
000000a0: 410d a8bf 1f6b 973e 787a 993f c654 8b3f
000000b0: f14f 6a3b 6368 8fbe b24f 223f 3307 c6bb
000000c0: be55 19bf 7746 5d3f 5d12 813e c971 06bf
000000d0: e8dd a33e 236a 643e 091e 3c3e 4fce 7d3f
000000e0: 80e7 483f 21ff d23e 5ff0 dabe 3afe d13e
000000f0: 010e 69be 62ba 3cbf bf7f b7be d693 c03e
00000100: d00b 56bf f33d 083f 1690 0ebf 599e a8bd
00000110: 1378 2dbf 3d00 52bf c217 24bf 2af6 3d3d
00000120: 4601 20bf ded5 68bd f66f 12be a4d9 43bf
00000130: 8059 343e 6199 c9be 568d 093e 622f 6bbe
00000140: 9919 4c3f 924f 7fbf eedd fc3e 8169 f5be
00000150: cc4b 1a3f f4ef 113f fce3 223f b5ae d53e
00000160: 4f41 7c3e 478f 15bf 4c00 5bbf 9501 773e
00000170: 5778 efbe 34f5 f2be ad5d bebe c49a b2be
-0.81142294 -0.1934428 0.010464701 -1.0036803 -0.80001557 0.009348308 0.4163269 0.8351468
0.620587 1.2307681 1.1025074 -0.03393592 0.37596595 0.93015707 0.38091192 0.60909396
0.56470907 0.96152264 0.6427675 0.16525123 0.16607532 0.29627326 -0.6936817 -0.0016045733
0.73808104 -0.34438723 0.43902045 -0.16825432 -0.8416455 -0.37377313 -0.319313 0.22953092
-0.874886 0.30974576 -0.6370535 0.40793112 0.6542494 0.5860585 -0.030381069 -0.84490377
-1.3129045 0.29573914 1.19905 1.0885246 0.0035753215 -0.28009328 0.63402855 -0.0060433387
-0.5989646 0.86435646 0.25209323 -0.5251737 0.3200524 0.22306113 0.18370833 0.99142927
0.7847824 0.41210273 -0.42761514 0.41014272 -0.22759248 -0.737219 -0.3583965 0.3761279
-0.83611774 0.53219527 -0.5568861 -0.082333274 -0.67761344 -0.82031614 -0.6409875 0.04637734
-0.62501943 -0.056844585 -0.14300522 -0.7650397 0.17612267 -0.3937483 0.13432822 -0.22967294
0.7972656 -0.9973079 0.4938807 -0.47932056 0.60271907 0.57006764 0.63629127 0.41734853
0.24634288 -0.5842175 -0.8554733 0.24121697 -0.467715 -0.474527 -0.37180844 -0.34883702

fc1.bias f4 [32]
00000000: 079c 1cbf 73f3 2bbe 11bd b53e 2d6d 563e
00000010: 05e2 3bbe fbc8 a8be cb6b d33e 1a3d 10bf
00000020: e8b5 28bf 1944 193f dfbd 6bbf 22e5 c5be
00000030: 9d05 113f 97f5 3bbf d150 5c3e e172 043f
00000040: d19b 5c3d d677 283f 1dd0 2cbe 1d83 073f
00000050: 345f 9fbe 5a0b f1be 54c6 04be 79d9 3bbf
00000060: 82e8 433f d8da abbe 4bb2 cf3e fca4 f6bd
00000070: 7726 43bf 5343 03bf a608 b5be 435c 57be
-0.6117558 -0.16792087 0.3549581 0.20940085 -0.18347938 -0.32965836 0.41293177 -0.56343234
-0.65902567 0.59869534 -0.92086595 -0.38651377 0.5664919 -0.73421615 0.21515204 0.5173779
0.053859536 0.65807855 -0.16876264 0.5293444 -0.31127322 -0.47078973 -0.12966281 -0.7337871
0.76526654 -0.33565402 0.40565714 -0.12043187 -0.7623057 -0.51274604 -0.3535816 -0.21031289

fc2.weight f4 [16, 32]
00000000: e1d3 813f 8937 d1be 367e 95be 96ea 41bf
00000010: 632e 83bf 784a 47bf dcb4 8e3d 9467 1cbe
00000020: ef6d 31bf cac9 903d 9363 033f 278c 18be
00000030: 0428 253f 79fc 943d 3782 a8bf c0d5 4e3e
00000040: 740e f1bd 07d2 7b3e 564d 49bf 41c6 65bc
00000050: 42be 7aba 2802 8ebe 6df7 6d3d d594 723f
00000060: b3db db3d b6d5 513e 7c21 963d b11a 573d
00000070: bb14 2bbe d912 89bc d4a5 e43c ffd8 78bb
00000080: afed e4bf b1ab af3d 36be a4bd 2139 903e
00000090: fbcb 1d3e 1096 0cbc c870 8cbd 8f04 863e
000000a0: 3f26 2d3f 2353 ac3d ed7e 37bf a5bb 883e
000000b0: 6770 52bd d12f 8a3e 20ae eb3d 78f9 623c
000000c0: 0c8d a93e 933f 0bbe 6dcb a03d 3b46 863c
000000d0: ed5f a0bd eccd 523d 9b3f c5bc 93d6 f9be
000000e0: 6188 043e 72e9 f7be f703 64be 8b73 633d
000000f0: c242 b93f fe5e 28bf 3523 8bbe 15fa b9bd
00000100: b6ef a1bf 43dd 95be e1c9 d93d ed8b bb3d
00000110: 7953 c53f 11d2 4f3f 5ef2 96bc ce3c 873f
00000120: ab7e 83bd cdb5 8fbd 66d3 d13c 9697 243f
00000130: 64c7 a23c 9c5d a43d eb6f 953d 04d4 e03e
00000140: 2735 123f 70e7 f73d 476d 203f 680d 03be
00000150: e499 a53e 0a65 1e3f 5538 13bf c4e3 dcbe
00000160: 00a0 5c3b c477 59be af33 d13c 9d65 41bc
00000170: c8c6 913f b223 a7be d26a 9bbd 1fbf ebbe
00000180: ade4 cabf f5c7 843e b03e c0bd 9005 9d3d
00000190: 4151 0f3f a18c b93e 9e52 4dbe 2033 223f
000001a0: cdb2 9f3e c3b7 5d3a 5ad1 46bf 090b 7b3e
000001b0: fc7a a7be 14a4 25be 2256 a83e 2545 583d
000001c0: d7a6 b23e 916d 843d 5918 323e 1a1b c03c
000001d0: 6eda d33d 6ec4 bf3e a748 03be d0f9 6cbf
000001e0: 1fe0 833d a97e 64be 853d f8bc c767 283e
000001f0: 114d 9e3f df92 7dbf cfd4 4dbe 20d9 c53c
00000200: 2076 14be 6a26 bebe 3e6e b53e c8e2 c73e
00000210: 8517 bf3e e472 c2bf d480 07be 3724 6abe
00000220: 425d 8cbf b07f abbf e2b2 893e acc1 97be
00000230: 0789 2d3e 5ea4 a0be 557e 493e e3a6 183e
00000240: fa79 8d3c 046a a43d e6b8 e5be 6242 94bf
00000250: 63f4 49be a3a2 9bbe 1c1f d03c 5947 0d3f
00000260: 9812 73bd 7a10 43bd b262 88be 849c 6c3d
00000270: b94e 8dbf 77f3 3d3f 1934 fd3d e755 24bf
00000280: 559d 2d3d 0a97 4f3d 6e03 043e 48f0 cd3d
00000290: 1896 083e 409d b6be 8822 f93d 27b1 b3bb
000002a0: 46e4 eabd 6852 91bd 0bac 1e3e cf78 04be
000002b0: d825 743c 07a4 243d 1512 01be f39f 4abc
000002c0: f5ce 94be 19bc a13d 55a4 2ebd 029f 24bd
000002d0: 1268 94bc ddad e1bd f307 bcbd 3753 bfbd
000002e0: ecc3 46be d2a5 2e3e 0c0a 01be 9392 15be
000002f0: 29ab 0cbd cfd5 f73c b926 223e 1fe9 69bd
00000300: 4f66 c53f ffa8 333e 94c5 033e bf1d 2b3e
00000310: 2a22 83bf 7c73 48bf 78d4 8b3e eca5 80bf
00000320: 784a e53e e98a f0bd acb6 873e ca83 03bf
00000330: 7f1b 893d 25fb 253f 3609 7d3d 2c94 81be
00000340: be57 8cbe 26c4 7e3e 1453 5dbf ab0a 313e
00000350: 2048 51be 2500 bcbe 7a12 bdbd 7275 743f
00000360: d04e 39be c164 8e3d 1e4d 793e 08ec b43a
00000370: 51e4 1dbf fa41 453e 3c79 5c3e 1754 8b3e
00000380: be85 3fbe 7a32 d53e f7ed 32bd e1ee 283e
00000390: ef66 7cbc f373 47be 4eab d53d f80f 0bbf
000003a0: bc8e 973f 3ff7 453e ddc8 153d b7ea bfbe
000003b0: c968 433e b417 ab3f 5b6b 443e 1f4b 86bd
000003c0: 5c34 9f3e 6fa4 d4bd 08ff 1abe 59dc 1e3e
000003d0: 5fa0 2bbe 493a e6be 4ba3 123b 2b62 973e
000003e0: bd99 343e 5ad8 b1bf fe15 a6bc c6f8 5ebe
000003f0: d7f0 ac3f e41f 04be 7209 7cbf 1e70 393e
1.0142785 -0.40862682 -0.29197854 -0.75748575 -1.0248531 -0.77848005 0.0696809 -0.15273887
-0.6930837 0.07069738 0.51323813 -0.14897214 0.64514184 0.07274718 -1.3164738 0.20198727
-0.11770335 0.24591838 -0.7863363 -0.014024318 -0.0009565094 -0.2773602 0.05809729 0.9475835
0.10735264 0.2049168 0.073306054 0.05251569 -0.16707127 -0.01673262 0.027911104 -0.0037971137
-1.7885035 0.085776694 -0.08044092 0.28168586 0.15409844 -0.0085807 -0.06857449 0.26175353
0.67636484 0.084142946 -0.7167805 0.2670566 -0.051376726 0.26989606 0.11507821 0.013853423
0.33115423 -0.1359847 0.078513004 0.01639091 -0.078307964 0.051465914 -0.024078181 -0.4879652
0.1294265 -0.48420292 -0.22267137 0.055530112 1.4473498 -0.65769947 -0.27175298 -0.090809025
-1.2651279 -0.29270372 0.106342085 0.09157548 1.5416099 0.8117991 -0.018426117 1.0565431
-0.064206444 -0.070170976 0.025613498 0.642938 0.019870467 0.08025667 0.07296737 0.43911755
0.57112354 0.1210469 0.62666744 -0.12798083 0.32343972 0.61872923 -0.5750783 -0.4314252
0.0033664703 -0.21237093 0.02553734 -0.011804012 1.1388788 -0.3264442 -0.07588734 -0.4604425
-1.5851036 0.25933805 -0.09386957 0.076670766 0.5598336 0.36240104 -0.20051047 0.6335926
0.31191102 0.00084578636 -0.77663195 0.24515928 -0.32711017 -0.16175872 0.32878214 0.052800316
0.34892914 0.06466211 0.173921 0.023450423 0.103443965 0.3745455 -0.12820683 -0.92568684
0.06439232 -0.22313942 -0.030302772 0.16445838 1.2367269 -0.9905223 -0.20100711 0.024151385
-0.14498186 -0.37138683 0.3543567 0.39040208 0.3732263 -1.5191312 -0.13232738 -0.22865377
-1.096596 -1.3398342 0.2689429 -0.29639947 0.16946803 -0.31375402 0.19677098 0.14907412
0.017270077 0.080280334 -0.4486763 -1.1582758 -0.19722132 -0.3039752 0.02540546 0.5518699
-0.059343904 -0.047623135 -0.266378 0.057766452 -1.1039649 0.7419962 0.123634525 -0.64193577
0.04238637 0.05068115 0.12891933 0.10055596 0.13338506 -0.35666847 0.121647894 -0.0054837647
-0.11469321 -0.07095796 0.15495317 -0.1293671 0.014901601 0.04019549 -0.12604554 -0.012367236
-0.29064146 0.07897205 -0.042637188 -0.040190704 -0.01811603 -0.1101949 -0.09181204 -0.09342044
-0.19410676 0.17055443 -0.12601489 -0.14606695 -0.03434292 0.03025332 0.15835084 -0.057107087
1.5421847 0.17544936 0.12868339 0.16710566 -1.0244801 -0.78301215 0.27310538 -1.0050635
0.44783378 -0.11745245 0.26506555 -0.5137297 0.066946976 0.6483634 0.061776362 -0.2530836
-0.27410692 0.24879512 -0.8645489 0.17289226 -0.2043767 -0.3671886 -0.0923204 0.9549171
-0.18096471 0.06952811 0.24345824 0.0013803253 -0.6167651 0.1926345 0.21530622 0.27212593
-0.18703362 0.41640073 -0.043683972 0.16497375 -0.015405401 -0.19477825 0.104330644 -0.5432124
1.1840434 0.19332598 0.03656851 -0.3748376 0.19082941 1.3366609 0.19181578 -0.06557297
0.31094635 -0.10382926 -0.15136349 0.15513743 -0.16760395 -0.44966343 0.0022375162 0.29567084
0.17636772 -1.389415 -0.020274159 -0.21774587 1.3510998 -0.1290279 -0.9845191 0.18109176

fc2.bias f4 [16]
00000000: ca49 293e 72d0 9d3e 2517 03bd e3fa f73d
00000010: 3ab5 c9bd 0d51 c0bd 8b89 1abe 4f74 b13e
00000020: b33d 193e 107f 943e fe4f 973c 1032 ac3e
00000030: 64b8 22bd a9d7 3bbe 6aba 053e 1e14 fdbe
0.16532055 0.30823094 -0.032004494 0.121084 -0.09849019 -0.09390459 -0.15091531 0.3465905
0.14964943 0.2900319 0.01847076 0.33631945 -0.03972663 -0.18343987 0.13059393 -0.4942941

fc3.weight f4 [3, 16]
00000000: 044c 503f a3e8 31bf ebb4 b7bf 5024 b1bf
00000010: f0ab 82bf 793b 4fbe b0ac 7b3f 98a1 ef3d
00000020: 2ba5 063f f655 9ebe b2b9 5ebf 1d53 2e3f
00000030: 62d8 1e3f 8eff c93f 39b4 90bf 4cab 073f
00000040: 2551 c0bd 34d6 07bf c42c 8c3e 7ef6 293d
00000050: 571f 0d3f e73c 473e d466 46bf 87ac 4bbf
00000060: 61e6 a3bf 855a 55bf 9c71 313e 54aa 6a3f
00000070: 7bc2 92bf 857d 3f3f fc43 d23e 5e37 ea3e
00000080: 9088 a8bf a7f4 453f 09e4 b73e 7cbd 0a3f
00000090: 6502 ac3d ab26 66be 92e6 18bf f39b e13e
000000a0: d7cf e13d bd1f ed3e 7132 c93e 667d d5bf
000000b0: 497b 453c f0d3 e5bf 9661 903e 142d d0bf
0.8136599 -0.694956 -1.4352087 -1.3839207 -1.0208721 -0.20237531 0.98310375 0.117007434
0.52595776 -0.30924958 -0.870021 0.6809557 0.62048924 1.5781114 -1.1305 0.52995753
-0.09390477 -0.53061223 0.27377903 0.04149484 0.55125946 0.19456826 -0.77500653 -0.7956013
-1.2804681 -0.83341247 0.17328495 0.9166615 -1.1465601 0.748009 0.41067493 0.45745367
-1.3166676 0.77326435 0.35916165 0.5419538 0.08398894 -0.22475688 -0.5972682 0.44064292
0.110259704 0.46313277 0.39296296 -1.6678894 0.012053319 -1.7955303 0.28199452 -1.6263757

fc3.bias f4 [3]
00000000: 5193 9d3b 99e5 17be 2c61 2b3e
0.0048088212 -0.14833678 0.16736287
